notebooks/lightning_logs/version_6/checkpoints/epoch=13-step=448.ckpt (torch, 717429 bytes, 40 tensors)

model.decoder.ff.freqs f4 [16]
00000000: 0000 803f cdcc cc3f cdcc 0c40 3433 3340
00000010: 9a99 5940 0000 8040 3433 9340 6766 a640
00000020: 9999 b940 cccc cc40 0000 e040 3333 f340
00000030: 3333 0341 cdcc 0c41 6666 1641 0000 2041
1.0 1.6 2.2 2.8000002 3.4 4.0 4.6000004 5.2000003
5.7999997 6.3999996 7.0 7.6 8.2 8.8 9.4 10.0

model.decoder.model.0.weight f4 [128, 42]
00000000: bc35 c93d 698c 6abd 910a d73d e60e a4bd
00000010: 5bd2 203e 417a 8a3d 362f 133d f814 b5bd
00000020: a1da c0bd 94fd 973d a95b b83d 05c0 0abe
00000030: 443a 0abe 4d2b a23a 15a7 283d 034b af3d
00000040: f6fa c4bc 99f6 4c3d 7387 253d c24c 5cbd
00000050: d4dc cdbd 5db0 17be 8281 353d 0ed6 39bd
00000060: ce57 15be 30bb eb3a 4042 1e3d e993 e53d
00000070: b83d 33bc 79a5 d2bd 5d00 98bb 11fb 40bd
00000080: 82ec b4bd 7953 2b3d 6fb6 fbbd 37c1 ecbc
00000090: 5a5c 113d b539 bebd 576b eabd a40d b03c
000000a0: 94a1 e8bd 73c3 023e 4056 b0bd 8bb2 923d
000000b0: 796d f5bd 6738 0abe 91d4 f53d 9c0b 99bd
000000c0: 5be4 e5bd 813e 7cbc 8dd0 0f3c e76a 1fbe
000000d0: 9ebd 363c bafc dd3d 8067 b0bd e642 4f3d
000000e0: f3a7 463d a957 0d3d 1f4d 053e a5b3 853b
000000f0: aaf8 7e3d 6af9 ae3b 554f f6bd ccaa bc3a
00000100: b2a7 80bd b815 cc3d 51f4 c13d f105 98bc
00000110: 78ab 4dbd 2d26 90bb 3eee 113d 6d6b d53d
00000120: cac3 b23d 9fd6 e8bd 916a 86bd 2367 a3bd
00000130: 248b efbd 20ca 75bd 1078 9bbd 3dc2 e2bd
00000140: f579 023d 7c35 5ebd 1057 163d dd8e 2abd
00000150: 62ec f43b c136 3fbd bc1e bd3d 554e b93d
00000160: 8757 863d f386 a4bd 3718 ba3d 8d44 823c
00000170: fedd 0cbe b5a7 80bb 491d 1cbd ebf7 f13d
00000180: ef09 ed3d c149 c8bc 7598 edbd a7d0 f13d
00000190: 7941 b3bd a13a b93c 8f23 18be 8e4c acbd
000001a0: 4e0c b1bb a348 bf3d f5c0 8a3d ffdf 043e
000001b0: bf30 aebd feca 36bd 4657 8e3d 6c45 1a3d
000001c0: a2cd 67bc 0df8 04be 7a48 793d ba21 44bd
000001d0: 2af9 8fbc 500b 403b 034c 9fbd dc2e afbd
000001e0: 13b5 3abd 9872 813c 37e4 04bc 1859 d8bd
000001f0: 3de7 f2bd 764f 3b3c d3aa 993d 2175 f8bd
00000200: ba47 11be 0301 d53d 2ce3 12be 2194 833d
00000210: a556 fb3c 67d6 773b d99a bbbd cf27 98bd
00000220: dbfc 30bd 5403 053e 1ffe 883d d99a 9cbd
00000230: 74e6 f13d 6502 9bbd 1813 dcbc 8dbe 813c
00000240: 7146 0bbe 54cf ecbd 40c2 533d 5d5d a5bd
00000250: 6476 dabd 566e 1d3d 0610 f8bd 39d3 1abe
00000260: 820d 033e 88d6 67ba 30f9 11bc 01b4 cc3d
00000270: 5b59 73bd 9e80 d83c b8ba f03d ea24 ae3c
00000280: 639e ce3d 0be0 27bd 60a8 edbd 3827 03be
00000290: e2bc f1bc 2a99 093e 7309 0e3e 520c 243d
000002a0: 1fd2 c93d ff6e 3c3d e0d9 f13c 52de dbbc
000002b0: 1b22 a4bc 2364 29bc 0d39 18be 3c3b b13c
000002c0: b78c c5bd 1fec a03d 52fb 47bd f416 463c
000002d0: a55a c3bd 64f9 afbd 973b 083e d431 98bd
000002e0: f9a7 fd3d a289 01bd 0bf3 7c3c 1a99 493c
000002f0: 7af4 b8bd a6aa e33d e79c dabd 2249 8a3d
00000300: 6400 dbbd 93c0 b13d b033 be3d fc48 823d
00000310: e4fd f1bd 25e8 fb3c 127b 10bc 76e6 9fbd
00000320: df24 7b3d 26d5 85bc c5c9 303d 92c2 9fbd
00000330: a67b c73c 7fea c2bd 82ab 96bd fc60 033e
00000340: a395 aabd 8134 1bbd 0393 1a3e ac7a 9f3c
00000350: b382 ed3d c68c 0b3d 0625 a03d a648 023b
00000360: b472 093e 7273 21bb 2ec5 6a3d 230b fc3d
00000370: 33d5 4c3c 7a43 fd3d 8b4d 0cbe b7df 03be
00000380: 0db7 18be 6518 95bd 8260 d13d 01c3 ec3b
00000390: 0b4e 28bd 8bec dfbc 10db 0b3e ee52 81bc
000003a0: 1aa3 033d 6909 133e dbaf 7e3c 2463 c4bd
000003b0: 96ff 0a3c d6a3 c2bd c273 f03d d867 53bd
000003c0: 9d04 703d dccf e43c 3824 b73d e517 8d3d
000003d0: 37c7 dc3d 7d48 3cbd 4588 153e 9925 1dbe
000003e0: 31ae 5ebc bdfc 07be d98f 333d f77c 6fbc
000003f0: 094a 4fbd cb8f 9c3c 3b25 dcbd d4cf dc3d
0.09824702 -0.05726281 0.10500062 -0.08010654 0.15705244 0.06761599 0.035933696 -0.0884189
-0.094167 0.07421413 0.09001858 -0.13549812 -0.13498789 0.0012372524 0.041174967 0.08559229
-0.024045449 0.05003986 0.040412378 -0.05378414 -0.10051885 -0.14813371 0.04431296 -0.045370154
-0.14584276 0.0017984863 0.0386374 0.11209852 -0.010940008 -0.10285468 -0.004638715 -0.047114436
-0.08834173 0.041827653 -0.12290656 -0.028900726 0.035488464 -0.092883505 -0.11446255 0.02149088
-0.113589436 0.1276987 -0.08610201 0.071629606 -0.11983771 -0.13498078 0.120034344 -0.074729174
-0.11225196 -0.0153957615 0.00877775 -0.15568124 0.011153607 0.108392194 -0.08613491 0.05060091
0.048500013 0.034507427 0.130177 0.004080253 0.062248863 0.005339791 -0.1202685 0.0014394163
-0.06281985 0.0996508 0.09470428 -0.01855752 -0.050212353 -0.004399082 0.035627596 0.104208805
0.0872875 -0.11369061 -0.06563295 -0.07978656 -0.11696461 -0.060007215 -0.075912595 -0.11072204
0.03185459 -0.054250225 0.036704123 -0.04164015 0.007474468 -0.046683077 0.09234378 0.09048144
0.06559663 -0.08033552 0.0908665 0.015901828 -0.13756558 -0.0039262422 -0.038113866 0.11814865
0.1157416 -0.024449231 -0.116013445 0.118073754 -0.08752722 0.022610964 -0.14857315 -0.08413039
-0.005403078 0.09340026 0.06775085 0.12976073 -0.08505391 -0.044627182 0.0695024 0.037663862
-0.014148148 -0.12985249 0.060860135 -0.047883727 -0.017574865 0.0029303618 -0.0777817 -0.085538596
-0.045582842 0.015801713 -0.008111051 -0.10563868 -0.118605115 0.011432519 0.07503285 -0.121317156
-0.14187518 0.104005836 -0.14344472 0.06424738 0.030680964 0.0037817003 -0.09160394 -0.07429468
-0.04320989 0.12989551 0.06689095 -0.07646722 0.118115336 -0.07568816 -0.026864573 0.015837932
-0.1360109 -0.11562982 0.051698923 -0.08074448 -0.106671125 0.038435303 -0.12112431 -0.15119638
0.12798122 -0.00088439183 -0.008909509 0.099952705 -0.059411388 0.026428517 0.11754364 0.021257836
0.100888036 -0.04098515 -0.116043806 -0.1280793 -0.029509012 0.13437334 0.13870792 0.040050812
0.098545305 0.04600429 0.029522836 -0.026839409 -0.020035794 -0.010338816 -0.14865513 0.02163469
-0.0964598 0.078575365 -0.048823662 0.012090433 -0.095387734 -0.08592489 0.13303982 -0.07431379
0.12385554 -0.031625398 0.015438805 0.012304569 -0.09031005 0.11116533 -0.10674458 0.0675223
-0.10693434 0.08679309 0.09287202 0.06361577 -0.11816004 0.030750344 -0.008818405 -0.07807629
0.06131446 -0.016336989 0.043161172 -0.07800783 0.024350952 -0.09517383 -0.07356931 0.12829965
-0.08329322 -0.03789187 0.15095143 0.019467674 0.115971945 0.0340698 0.07819562 0.0019879728
0.13422662 -0.002463546 0.05731695 0.12306812 0.0125020025 0.12366386 -0.13701455 -0.12878309
-0.14913578 -0.072800435 0.102234855 0.0072253947 -0.041090053 -0.027334472 0.13657784 -0.015786614
0.032137968 0.14359058 0.015544857 -0.09589222 0.008483788 -0.095039055 0.11740829 -0.051612705
0.05859815 0.027931146 0.08942455 0.06889323 0.10780185 -0.045967568 0.14602764 -0.15346374
-0.013591335 -0.13280006 0.043838356 -0.014617196 -0.050607715 0.019111535 -0.10749289 0.107818276

model.decoder.model.0.bias f4 [128]
00000000: 23a1 2c3d 0ad6 ab3d fe4a 9abd 4acd c7bd
00000010: 7a83 943c 47d8 a7bd 1198 ac3d c0af a83d
00000020: 3dad d13c fae7 b3bd 05a2 273d 042c 613c
00000030: f906 e83b cbc9 ed3d b06f fb3c 8869 903d
00000040: 5120 d4bc 5aad 213d f21b 3dbd 99e1 463d
00000050: 9aed 5b3d f512 f03d 4fa5 c2bd aea8 783d
00000060: 017c fabd 2745 d83c e7bc 783d 3fca 37bd
00000070: 32d6 27bd 38ea 59bd 7647 e9bd 445f 74bd
00000080: 069a afbd 3a93 333c 05a6 53bb b361 90bd
00000090: adb0 233d 0083 cf3c 0b8a acbd c573 d83b
000000a0: 90cc 3b3d 332e 0bbd 4784 c8bd e1de c53d
000000b0: ad46 6fbd 4367 8e3d d2ea f6bd dbf2 e13c
000000c0: 4bed 89b9 280e 54bc 3eeb 893a 1b1c 773c
000000d0: 7269 0ebe 49b6 11bc 2995 99bd 671b 993c
000000e0: f6fe 7c3d 96ae 033e bdaa e7bd c9c3 55ba
000000f0: c719 863d 4888 613d 72ef 313d eaa2 f93d
00000100: 9ca9 babd 73f8 a13d 8c12 06be b6c2 debd
00000110: 442f 0b3e d592 f1bc d5bd bb3d 45cd 6abd
00000120: 276d c8bd e4f7 853d 0234 f6bc 91d8 b93d
00000130: 031d a6bd d9a8 62bd 9e07 fabd d9c6 a73d
00000140: 03d0 75bd 60ea 113e 2b8e 09be 4ac5 21bd
00000150: 5d52 983d ee8b fe3d 2685 4e3c a6a3 d9bd
00000160: 74e2 0c3e 0149 31bd ef5e c33d 58e7 b6bc
00000170: 5a37 a2bd 9dc0 593d 9851 583d 45bf a43b
00000180: 3259 a2bd a9a9 3fbd 9f81 ac3c 3a63 fd3d
00000190: 7cfa 8c3d 9945 703d 88ab f43d 842a 84bd
000001a0: 7233 0dbe b86d 02be 7a3e d0bd 9fc3 41bd
000001b0: 4370 96bd d62a f73d 6098 afbb 6267 16bc
000001c0: 8c05 c83d 8148 dfbd e6c0 293d ddfa 01bd
000001d0: cc6e 66bd ab7c a73d bd03 f73d e97d 31bd
000001e0: aaa1 b9bd 40c0 ea3d b336 103e 5cc5 033e
000001f0: 46fb 973d 482a a0bc 584e acba be0c f2bd
0.04214586 0.08390434 -0.07533835 -0.09755953 0.0181291 -0.081955485 0.08427442 0.08236647
0.025595302 -0.087844804 0.040926 0.013743404 0.0070809093 0.116107546 0.030692905 0.070513785
-0.025894316 0.03947196 -0.04616923 0.04855499 0.05369339 0.11722366 -0.09504186 0.06070774
-0.12230683 0.026400162 0.060727026 -0.04487061 -0.040975757 -0.053201884 -0.11390583 -0.059661165
-0.085742995 0.0109603945 -0.0032295 -0.07049885 0.039963413 0.02533102 -0.08424767 0.0066055977
0.045849383 -0.033979606 -0.09790855 0.096616514 -0.05841701 0.06953289 -0.12056507 0.027581623
-0.00026307473 -0.012942828 0.0010522378 0.015082384 -0.13907412 -0.008893558 -0.07499153 0.018689824
0.061766587 0.12859568 -0.113118626 -0.00081544794 0.065478854 0.05506161 0.043441243 0.121892765
-0.09114382 0.07908716 -0.13093013 -0.10876982 0.13592249 -0.02948896 0.09167067 -0.057324667
-0.09786444 0.06541422 -0.030054096 0.0907451 -0.08111002 -0.055336807 -0.12208484 0.08192224
-0.06001283 0.14249563 -0.13433139 -0.03949479 0.074375845 0.12429033 0.012604987 -0.106269166
0.1375826 -0.043282513 0.095395915 -0.02232711 -0.07920714 0.053162206 0.05281219 0.005027684
-0.07927169 -0.04679266 0.021057902 0.123724416 0.068837136 0.058660123 0.119467795 -0.06453422
-0.13789156 -0.12737167 -0.101681665 -0.0473057 -0.07345631 0.12068717 -0.0053587407 -0.009179922
0.09766683 -0.10902501 0.041443728 -0.031733382 -0.056258008 0.081780754 0.1206126 -0.043332968
-0.09064038 0.1146245 0.14083366 0.12868255 0.074209735 -0.019551411 -0.0013145907 -0.11818837

model.decoder.model.2.weight f4 [128, 128]
00000000: 0bd6 0f3c 6953 803d 29e5 183d 062d d4bc
00000010: ab44 81bd b847 463c f516 d5bc 1213 b13a
00000020: 6551 123d f0b6 993c 913b 90bd 7d60 b4bb
00000030: 0424 613c b034 70bd a5b1 b8ba c035 733c
00000040: 5dc6 e93c 7512 0ebc b0d7 c83c ffb8 8abd
00000050: b554 153d 8abb 1b3d a1ff 513d 956e 5bbd
00000060: 40f7 05bd 22c7 833d a1c6 6ebc 8437 89bd
00000070: 4088 9fbd 2cb3 ec3a de76 413d 606e 9dbd
00000080: a047 533d 036c a53d ebcf da3b 995c 92bd
00000090: fc2b 8ebd 735c 653d f3fd 80bc 51e2 8d3d
000000a0: 2881 973d 3347 a1bd 9f5e 7dbd c4da 96bd
000000b0: ce26 c2bc 0ff9 55ba 1b01 ad3c 59ad aabd
000000c0: 14d8 4abd 483b b83c db39 823d 722e 0a3d
000000d0: 370c a6bc f1cd efbc 10bf d53c 6108 acbd
000000e0: 8a08 2a3d 2cd5 f8bb 89d3 c33c c019 d13a
000000f0: f10c a03d c8bd 9fbd b159 843d ce71 14bd
00000100: 4a59 bbbd 7372 bcbb 43b4 e5bc 7402 7c3d
00000110: c6d9 133c 8514 903d 89fb 4abc cbb3 9ebc
00000120: a691 8d3c 2e1b 82bd f44d adbd aa81 fdbc
00000130: f6e2 1cbc 481e 2fbc a5a6 733d 26b1 4d3d
00000140: 82b0 5ebd edf7 073d c4f7 b9bd bf47 babd
00000150: 7e0a 71bd 9e5b 96bd 93fe edbc 64ae a7bc
00000160: c3d9 68ba 9eb4 283c 7f01 693d 9514 a2bd
00000170: a1b2 583d 5fbd 263d 036e f83c c7d0 90bd
00000180: ed01 a63d b886 1dbc a81f 87bd 4ae8 28bd
00000190: dc15 00bd 2e0e 813d 5d0c 943d 3f3c cbba
000001a0: b5a9 7e3c 324a 03bc 505c 533d b553 a83d
000001b0: 286a 423d ada3 a9bd e000 043d ecf0 16bd
000001c0: bbfb dabb 3657 00bc 4197 d8ba 79b0 92bd
000001d0: d89c 453d 89da 53bd 59c3 5f3d 9cbf 8d3c
000001e0: 91da 80bd 8300 44bd 5cca ae3d 924a 243d
000001f0: 8809 1fbd 1c01 a2bc 22d8 1d3d aedc a53d
00000200: a543 5ebd af6c a33c 20d8 dbbc 02a9 24bd
00000210: c94a d23c 2127 053d ec1b 59bc 2757 063d
00000220: 6801 40bc e3f3 dcbc d69e d9bc fb1e 80bd
00000230: 1bd5 343d ad36 fa3c 39d4 313c 622f a63d
00000240: cee8 00bd 0c2d 263d 5c83 2abd 9670 1dbd
00000250: 9abe be3c 43de 90bd e684 a83c 624d 8dbd
00000260: 1051 a6bd 8b68 09bd 934c 62bd 8812 803d
00000270: 7f4a 493b 5584 833d 6f84 253c c479 07bd
00000280: e078 053c 0ef4 a03d 53d8 313d 68c6 71bc
00000290: 6c94 f3ba d149 633d 968a f73c da49 7b3d
000002a0: a049 5bbd 142a 903d 8f59 9b3d de5e 7e3d
000002b0: 4860 02bd 179a 893d 59aa f33c 5032 26bd
000002c0: 6517 b73b 8f05 99bd bec3 8a3d a98f 9bbb
000002d0: 2e34 ccbb 69ea b33d 3528 603d 9420 723d
000002e0: d783 64bd db64 b43d ee32 a0bd df2d d4bc
000002f0: b849 4abd 089f 8e3b a577 77bd bcc5 5c3a
00000300: 7536 c03c 6af7 7cbd 13a7 0d3c e771 953d
00000310: 9835 49bd 82fd 0cbd f7f5 40ba ea6e 90bd
00000320: 3ba3 98bd f93b 6e3c 8f02 8abc 3317 353d
00000330: 7166 8ebd e099 663c 39e7 e8bc bcd4 89bd
00000340: cf3f ca3c d7ae a4bc ee2b 85bd fa93 61bd
00000350: e2db 803d 2625 a8bc a31e 15bd 902c e5bc
00000360: fb84 e43c b7d3 943c d9fb e63b 5807 31bc
00000370: 7955 72bd 3d10 d8bc 5fc2 6e3d fac9 0ebd
00000380: 5eb1 adbd e8a4 2fbc dfb9 2e3d 6b88 ecbc
00000390: e45a 0a3c 6aa2 0cbc 2393 e13c c2cc 06bd
000003a0: e342 5b3d 65fe 8d3c c160 a3bd c32f 98bc
000003b0: b7a3 50bd 9e2b 003d 4083 9ebd b466 78bc
000003c0: 8df2 843b 39ee d6bc fe52 853d 9cfb a0bd
000003d0: 9f1b 27bd 5739 f2bb e756 583d d7d5 303d
000003e0: 27f8 e73c 120a 96bd c78a 2a3c a482 623d
000003f0: 33ae 1dbc 826d e93c c371 5b3c 6f2f d4bb
0.008779059 0.06265909 0.03732792 -0.025900375 -0.063119255 0.01210206 -0.026011923 0.0013509712
0.035722155 0.01876399 -0.070426114 -0.0055046664 0.013741497 -0.058643997 -0.0014091028 0.014844358
0.02853697 -0.008671393 0.02451691 -0.067735665 0.036457736 0.038020648 0.051269177 -0.053572256
-0.0327065 0.06434466 -0.014573724 -0.06700042 -0.077896595 0.0018058768 0.0472325 -0.07687068
0.05158198 0.08077242 0.006677618 -0.07146568 -0.06941983 0.05599637 -0.015746092 0.06927932
0.073976815 -0.07874908 -0.061857816 -0.07365945 -0.023700144 -0.0008162418 0.021118691 -0.08333845
-0.049522474 0.022489205 0.06358691 0.0337357 -0.020269496 -0.029273005 0.026092082 -0.08400036
0.04151205 -0.0075937714 0.023904579 0.0015953109 0.078149684 -0.0779987 0.0646242 -0.036241345
-0.0914789 -0.005750948 -0.028040057 0.061525777 0.009024089 0.07035164 -0.012389072 -0.019372841
0.017281365 -0.0635284 -0.08462134 -0.030945618 -0.009575596 -0.010688372 0.059485096 0.05021777
-0.05436755 0.033195425 -0.09080461 -0.09095716 -0.058847897 -0.07341693 -0.029052055 -0.020468898
-0.00088825467 0.010296969 0.056886192 -0.07914082 0.05290473 0.040707942 0.030325895 -0.07071071
0.08105836 -0.009614639 -0.06597835 -0.041237153 -0.031270847 0.06301533 0.072289206 -0.0015505626
0.015543391 -0.008013295 0.051601708 0.08219091 0.04746452 -0.08283172 0.032227397 -0.036850855
-0.0066828406 -0.007833293 -0.0016524569 -0.07162566 0.04824528 -0.051722083 0.054629657 0.01730328
-0.06291688 -0.04785205 0.08534691 0.04011018 -0.03882745 -0.01977592 0.0385362 0.08098732
-0.05426373 0.019949285 -0.026836455 -0.04020024 0.025670426 0.03250802 -0.013251286 0.03279796
-0.011719085 -0.026971763 -0.026564997 -0.06255909 0.044148546 0.03054365 0.0108538205 0.08114506
-0.03147202 0.040570304 -0.04162918 -0.03843745 0.023284245 -0.07073643 0.020571183 -0.06899525
-0.0812093 -0.033546966 -0.055248808 0.062535346 0.003071457 0.06421725 0.010102375 -0.03307511
0.008146495 0.0785905 0.043419193 -0.014756776 -0.0018583662 0.05549032 0.03021745 0.061349727
-0.05353701 0.07039276 0.07585441 0.06210219 -0.031830102 0.067188434 0.029744314 -0.040575325
0.0055875056 -0.07471763 0.06775616 -0.0047473502 -0.0062318062 0.087849446 0.054725844 0.0591131
-0.055789795 0.08808299 -0.07822214 -0.02590078 -0.04938671 0.004352454 -0.060416836 0.00084217987
0.023463467 -0.06175939 0.008645791 0.07297116 -0.049123377 -0.03442145 -0.00073608704 -0.07052405
-0.07453009 0.014540666 -0.016846923 0.044211578 -0.06953133 0.014074773 -0.028430568 -0.06730029
0.02468863 -0.020102901 -0.065025195 -0.055072762 0.06291939 -0.020525526 -0.03640617 -0.02797535
0.027895441 0.01816736 0.0070490655 -0.010804974 -0.059163544 -0.02637493 0.058290835 -0.03486059
-0.08481096 -0.010720469 0.04265773 -0.028873643 0.008444522 -0.008583644 0.02753598 -0.032910116
0.053530585 0.017333219 -0.07977439 -0.018577462 -0.05093738 0.031291597 -0.07739878 -0.015161205
0.0040572346 -0.02623664 0.0650997 -0.07860491 -0.040797826 -0.0073920893 0.05281725 0.043172684
0.02831657 -0.073261395 0.010409064 0.05530037 -0.009624052 0.0284946 0.013393822 -0.006475381

model.decoder.model.2.bias f4 [128]
00000000: 6929 29bd 6078 12bd b36f 57bd c9ca db3c
00000010: 1865 943d c88e ea3b 6876 6a3c 6ff3 2ebb
00000020: cb7e 973c 5287 6d3b d85a 97ba 9354 c0bc
00000030: 4760 b33c 60f4 97bc 7f64 1ebd 257d e83c
00000040: 40d7 87bd b80d 7cbd 4d8c a93d 2894 46bd
00000050: ce6c 243d c25c e93c 267e 1f3c dbcd 153c
00000060: d911 073d 5a04 67bc 915d a7bc 6a82 7dbd
00000070: bfea 393d 156b 6a3b f317 2ebd 1d48 acbc
00000080: 34b0 6dbc a26a fd3c 9279 803d 34de 8fbd
00000090: 37fc a13c 25e7 543d 7ff6 743d 5c7d 4cbd
000000a0: 9d0f 653d c89c 3a3d 4f6a 183d 1a28 92bd
000000b0: 08aa b53c 8ed1 c0bb d0c1 223d caf2 2f3d
000000c0: d7db 973c 7d69 baba b032 133d f953 4b3b
000000d0: 2a7e 23bd 662b 2fbc 48f0 9fbd 79df 343d
000000e0: d4bf 5d3d 25cb 89bd 68ed bbbc 1c15 3ebd
000000f0: 903d 963d 8a31 213d b6b3 9d3b 0fd3 0c3d
00000100: 04a0 aabc e19d 3e3d 857e 6bbc 8f7e f83c
00000110: fbe1 f73c 74cd 6a3d e0b9 e1bc fffd 7a3a
00000120: 66ee e03c 38a2 24bb fca4 6abd ecb1 80bd
00000130: c002 fcbc c290 1d3d 68f6 6fbd a18e 2ebd
00000140: be1f 9bbd 34a9 cf3c eb77 b8bb 1351 cbbc
00000150: 1ea1 853c 4f9b 71bd cc13 5fbd 2592 89bd
00000160: e949 e83a 2e24 9d3d d8a1 283d 0561 573d
00000170: c1cd 2b3d fb45 343d c86f cf3c 44eb 963d
00000180: 956a 1dbb bc68 763d e475 b7bc 4bee 62bd
00000190: 8c67 d3ba 1f97 65bc ae66 6c3d 3444 3cbd
000001a0: cfbe 2a3d 6af4 543d 301d 573d 4310 0d3d
000001b0: 70df 5e3d 42ad 65ba 57f2 ce3b 7df1 793d
000001c0: 3efa 403d 5435 1ebd 0031 2cbd 9173 073d
000001d0: 9867 0b3d f1ab 01bc c011 013d 818d 8a3c
000001e0: 1b34 2bbd 4cb0 ac3c 8a07 503d d61f db39
000001f0: 90ac a33c e9dc 67bd ddc5 1bbd 7ad8 62bb
-0.041299257 -0.03575933 -0.05259676 0.026830094 0.072458446 0.007158134 0.014310457 -0.002669539
0.018493077 0.0036243987 -0.0011547459 -0.023477828 0.021896495 -0.018549144 -0.03867006 0.028379986
-0.066328526 -0.06153652 0.082787134 -0.048481137 0.040142827 0.028486613 0.009734666 0.009143318
0.032976005 -0.014100159 -0.020430358 -0.06189195 0.045389887 0.0035769392 -0.04250331 -0.02103048
-0.014507342 0.030934636 0.06273188 -0.07024804 0.019773586 0.05197825 0.05980539 -0.04992424
0.055923093 0.045559675 0.03721076 -0.07136555 0.022175804 -0.005884356 0.039735615 0.04295615
0.018537445 -0.0014222112 0.03593701 0.0031025393 -0.03991524 -0.010691499 -0.07809502 0.044158433
0.05413802 -0.067282 -0.022940353 -0.04640685 0.07335961 0.039353885 0.004812683 0.03438097
-0.020828255 0.046537284 -0.014373426 0.030333785 0.030259123 0.05732484 -0.027554452 0.00095745915
0.027457427 -0.0025121104 -0.057286248 -0.06283936 -0.03076303 0.03846813 -0.0585846 -0.04261649
-0.07574414 0.025349237 -0.0056295297 -0.024818933 0.016312178 -0.058986004 -0.05446224 -0.06717328
0.0017722222 0.07672916 0.04116997 0.05258276 0.04194427 0.04401205 0.025321856 0.07369092
-0.0024019827 0.060158476 -0.022395082 -0.055403035 -0.0016128882 -0.014013081 0.05771511 -0.04596348
0.041685876 0.051990904 0.05251807 0.034439337 0.054412305 -0.0008761474 0.0063155103 0.061021317
0.04711365 -0.038625076 -0.042038918 0.033069197 0.03403434 -0.007914529 0.03151107 0.016913177
-0.04179774 0.021080159 0.05078844 0.00041794655 0.019979745 -0.05660716 -0.038030494 -0.0034613893

model.decoder.model.4.weight f4 [128, 128]
00000000: a3bf 2fbd df71 a63d 06f4 84bc 6183 80bd
00000010: 6189 9e3c c8b2 a1bd c043 573d 8079 96bd
00000020: 0744 b63d 9d17 42bd c439 5a3d fb2a 3d3d
00000030: 05bf fabc 852c d83c d49e cebc 05de a0bd
00000040: 30d1 7c3d ccd3 5a3d 7e1b 133d be79 d73b
00000050: 20db 453d 3fee 94bd 8672 cdbc 476e 87bb
00000060: f85b 46bd d207 eb3c 6806 fdbb f3ab 9bbd
00000070: 7d3d 6fbc 36cf db3c 29b7 e93c c6af 8dbd
00000080: 74c0 a23c 0f22 c53d a4cd aabd 54c9 183c
00000090: 297b 383c afe5 7fbc 8c79 5a3d abf5 a3bd
000000a0: 4718 3f3b c214 443d 3e37 98bd 2513 163d
000000b0: b7d3 3f3d a8c5 973c 7739 a73d 472b ae3d
000000c0: 0e14 bebb 44d2 3fbc f69c 033d c6b7 6cbc
000000d0: c02e 263a 2bff 763d 2ac5 7dbd ad6f 8f3d
000000e0: c2c6 8f3d 2939 b0bd e475 933d 6040 4bbd
000000f0: 1707 aebd 2e15 94bd 8b9e 9dbd 3d65 9f3d
00000100: c1b9 98bd dac1 a03a 8c60 1b3d 01e5 b3bd
00000110: e9c3 693d 0d81 7a3c f1e9 693d 35dc 6e3d
00000120: 79d0 953c 0939 5a3d 281c 953d 54a6 c93b
00000130: 1c73 253d 964f 12bd 67e1 aa3d a993 9abd
00000140: b35b 4b3d 60e5 813d 2482 94bd 7d30 97bd
00000150: 0a3d e639 59bb a83d 6a74 a13d 3e60 16bc
00000160: a94b d4bc 7eac dd3c 5790 82bd 29b1 833d
00000170: 1062 06bd f952 8e3c 3f4b 47bd ec62 53bd
00000180: 0651 4f3c aa46 183d fabc 6e3d 6c29 483d
00000190: 52d3 8f3d 3c10 3fbc 9a42 9c3d 044f 9f3d
000001a0: bbd7 d0bc 6b22 f23c 8076 b13b 5623 113d
000001b0: 34c1 4dbd f1ff 80bd 094b ca3d 025a a53d
000001c0: 818d 493c 0e7f 3cbb 98fc febc 83f5 b6bd
000001d0: a836 5bbd 5038 0ebc 10a5 163d babe 013c
000001e0: 37eb 363d ff97 213d 9432 1d3d 26ef 373c
000001f0: 7a4a 61bd 8859 9ebd 41dd b33d b85e 76bb
00000200: 996a 86bd d1c1 5bbd 790f 91bd 18cf c13c
00000210: cc78 8aba 3030 6cbd 9571 abbd 7e0c 99bc
00000220: eed5 91bd 701e cebc f3bf f1bc 4c40 b8bd
00000230: 83ad 013c eb9b 9c3d 3a96 84bd 0a92 08bd
00000240: 518d 9ebd f9a9 733d 38f9 94bd 314a 9cbd
00000250: 6b48 d6bc 919d b3bc 5cb6 f9bc 0347 c13c
00000260: 42bc 493d a071 b7bc 30d8 99bd ea2a b1bd
00000270: e993 203d 452b afbd ac88 a43d cad1 fa3a
00000280: d635 1cbc baaa 813d cc76 7cbd 0810 903c
00000290: 3baf a13d 9436 96bc fdbb 3a3d 82da b33b
000002a0: a590 97bd 1c0e 8f3c 12ea 3dbd 6e47 9ebd
000002b0: a374 3dbc 828b 033d 09da 743d 898b 723b
000002c0: 7435 d03c e1e7 4bbc 2df5 383d effd 3b3c
000002d0: d419 0e3d 3a63 093c 3a96 bd3c 4889 1fbd
000002e0: 7e7b 723d 5d1d d1bc 186b 303d 2bcf 14bd
000002f0: a31c 3fbd 88fb 6bbc 9ccc 323c c29c 1dbd
00000300: ca2b 5a3d 4304 f2bb 74b7 19bd c933 893b
00000310: 77f6 7a3c 0637 52bd 9c7d 073d 88d3 d03c
00000320: 6547 9dbd 4605 e1bb 5eab 4abd 4caf 7c3d
00000330: e708 1cbc 5671 b9bd 5d45 723d e877 9e3b
00000340: 741d 4e3d e4a8 ee3c d505 dc3b 9275 3a3d
00000350: 436d b13d 59c4 133b a7b9 1abd 7f29 933d
00000360: 2cac 753b ab6b 9f3d 0a7e 9b3d 769d ad3d
00000370: e7ca 4d3d 8158 ab3d 0547 44bc 3d11 1a3d
00000380: 9f5a a2bd 51a3 20bd 20a1 5f3d 6e85 0c3d
00000390: a9fe 1e3d 9482 8f3d 2aad 46bd 2e48 563d
000003a0: eb71 b0bd 691b ac3d 4d1c f7bc 3d01 953d
000003b0: c64c 62bc de18 02bc 4474 613d b561 a1bd
000003c0: 7c24 1d3d 3aac 22bd 2c2b 333c 605c c5bc
000003d0: 08df 1abd f355 8e3c f375 8f3d 4a9b 59bd
000003e0: 59a1 263d 1922 863d 6cfc a33d 21d8 6fbc
000003f0: 31e6 a4bd 46f6 82bd 75ba b2bd c0f1 313d
-0.04290737 0.08127188 -0.01622964 -0.062750585 0.019352617 -0.07895428 0.052554846 -0.07347393
0.08899694 -0.0473858 0.053277746 0.046183567 -0.030608663 0.026388416 -0.02522222 -0.07854847
0.061722934 0.05342464 0.03591489 0.006575792 0.048304677 -0.07272004 -0.025079023 -0.004133019
-0.048427552 0.028690252 -0.007721711 -0.07601156 -0.014602062 0.026832204 0.02852972 -0.06918292
0.01986716 0.09625637 -0.08340004 0.009325344 0.011259832 -0.015618726 0.053338572 -0.08005842
0.0029158758 0.04787136 -0.074324116 0.03663935 0.046832766 0.018526867 0.081652574 0.08504348
-0.0058007305 -0.011707846 0.03213211 -0.014448112 0.0006339364 0.06030194 -0.06195561 0.07003722
0.07020332 -0.086046524 0.0720022 -0.04962194 -0.08497446 -0.07230602 -0.07696255 0.077829815
-0.07457305 0.0012264804 0.03793387 -0.087839134 0.0570716 0.015289557 0.05710787 0.058315475
0.018287884 0.05327705 0.07280761 0.006153861 0.04039298 -0.03572043 0.08343773 -0.07547695
0.049647998 0.06342578 -0.07251385 -0.07382295 0.00043914496 0.08238859 0.07883532 -0.009178219
-0.025914984 0.02705979 -0.06375187 0.06430275 -0.032808363 0.017373549 -0.048655745 -0.05160801
0.012653595 0.037176766 0.05828569 0.048867628 0.07022728 -0.011661585 0.07629891 0.07778743
-0.025493493 0.029557427 0.0054157376 0.03543409 -0.05023308 -0.06298817 0.09877593 0.08073808
0.012301804 -0.0028762254 -0.031126305 -0.089335464 -0.05351892 -0.008680418 0.03677851 0.007919008
0.044657912 0.039451595 0.038378313 0.011226451 -0.055002667 -0.077319205 0.08782435 -0.0037593078
-0.06563301 -0.053651635 -0.07083029 0.02365832 -0.0010564565 -0.057663143 -0.083712734 -0.018682715
-0.07120882 -0.025160998 -0.029510474 -0.08996639 0.007914904 0.076469265 -0.06473966 -0.0333424
-0.07741798 0.05948827 -0.07274097 -0.076313384 -0.026157578 -0.02192572 -0.030482464 0.023593431
0.049251802 -0.022393048 -0.075119376 -0.08650763 0.039203558 -0.08553175 0.080338806 0.0019136008
-0.00953432 0.06331392 -0.06163673 0.01758577 0.07894751 -0.018336572 0.045589436 0.0054886946
-0.07400636 0.017462783 -0.046365805 -0.07728468 -0.011563453 0.032115467 0.059778247 0.003700944
0.025416113 -0.012445421 0.045155693 0.011474117 0.0346926 0.008385474 0.023142923 -0.03894928
0.059199803 -0.025526697 0.043070883 -0.036330383 -0.04665817 -0.014403231 0.0109130405 -0.038479574
0.053264417 -0.007385762 -0.03752847 0.0041870815 0.015317551 -0.051322006 0.033078775 0.025491491
-0.07679633 -0.0068670837 -0.049479835 0.061690614 -0.009523607 -0.0905482 0.05914818 0.0048360713
0.050321057 0.029133268 0.0067145624 0.04552228 0.08663418 0.0022547452 -0.037774708 0.07185649
0.0037486656 0.07784208 0.075923994 0.08477299 0.05024233 0.0836649 -0.011979823 0.037614096
-0.07927441 -0.03921825 0.05459702 0.034306936 0.03881708 0.07007328 -0.048504986 0.05231493
-0.08615478 0.084036656 -0.030164862 0.07275627 -0.0138122495 -0.007940499 0.05504252 -0.07879964
0.038364872 -0.03971503 0.010935586 -0.0240919 -0.037810355 0.017374968 0.07004919 -0.05312661
0.040681217 0.06549472 0.0800713 -0.0146389315 -0.08051718 -0.06394629 -0.0872697 0.04344344

model.decoder.model.4.bias f4 [128]
00000000: d62e 88bd e41c 893d f524 82bc 2759 713d
00000010: 1974 b33d 21a8 9abd f4a7 51bc 4a2d b0bd
00000020: 6178 c03c 783f 33bd c4fc 9abc a65f 843d
00000030: 7850 a6bd 439a 22bd 2fb1 883b 273e 933d
00000040: 760c 0a3d 51ff 90bb 72ad 823d f21e 8e3d
00000050: b704 8dbc a2c0 903d d2a4 943c c4b4 4c3d
00000060: 144e 87bc ec64 49bd 427e 6f3c 6488 9c3b
00000070: 8151 e3bc a849 8f3d 3692 57bd 78b2 803d
00000080: 898b 2e3c 2e22 23bc 3bc6 77bd 8697 31bd
00000090: 457e 0dbc 9e19 95bd ef2e 3d3d 559c 863d
000000a0: 7562 9a3d d161 5c3c f65e ad3c 8759 0d3d
000000b0: 797e ba39 51c9 46bb 7109 e3bc 4e71 0b3d
000000c0: c4a8 483c fd6e 3a3c 183c 09bd 9652 a03d
000000d0: 0d33 cf3c 12c7 273d 6bf3 7bbd 8179 66bd
000000e0: 6398 b43d a00c 3439 d747 d63b a7c5 eb3c
000000f0: edf4 84bd 5055 bdbc fb51 94bd 574c 243b
00000100: 5752 0e3d d26c 603d afb8 7b3c 4c35 343d
00000110: 1288 633c f8df 3a3d 8a6d eabc 32f6 7f3d
00000120: 7907 01bd e186 88bc 52f8 0cbd 4a29 1c3d
00000130: d6ed b0bd 17c7 d1bc 4cbe 43bd 6b01 293d
00000140: fec7 8bbc 33dd 53bd 5315 893d 92f5 6e3d
00000150: 4792 bbba ab54 4fbd 0ea0 9bbb 5599 a13d
00000160: 6bbc 813d 9392 673d 2028 893d e17f 243c
00000170: 71bc a5bd d4e7 65bb f189 f5bb 59f8 3c3d
00000180: 9727 7bbb 365c 3b3d 09e4 14bd 7fa1 79bd
00000190: 8f87 5b3d d12c 843d 7503 803c f31a adbb
000001a0: cf5e 8b3d 7153 cdbc 0d02 a93d ad2e 843d
000001b0: 96f0 d1bc db5d 1c3d b11e a6bd f0a0 c13b
000001c0: bf17 af3b c9d4 4b3c 6844 5d3d b98f 873d
000001d0: db6c 93bd 99d2 133d e3ae ee3c 9646 d0bc
000001e0: f605 05ba 9cf9 9b3a b9e1 b1bd ec31 963d
000001f0: 80cd 7abc 4bb7 603d 2c80 eabc e24a 22bd
-0.06649558 0.066949636 -0.015886763 0.058922913 0.08762378 -0.07551599 -0.012796391 -0.08602388
0.023494901 -0.0437617 -0.018919356 0.06463556 -0.08120817 -0.039697897 0.0041715126 0.07189589
0.03370329 -0.0044249673 0.06380738 0.06939496 -0.017214162 0.07067992 0.018144999 0.04997708
-0.016516723 -0.049168512 0.014617505 0.004777001 -0.027748825 0.06996471 -0.052629672 0.0628404
0.010653385 -0.00995688 -0.06049178 -0.043357395 -0.008636062 -0.07280277 0.046187337 0.06572787
0.075383104 0.013451056 0.021163445 0.034509208 0.00035570914 -0.0030332396 -0.027714463 0.034043603
0.012247268 0.011379001 -0.033504575 0.07828252 0.025292898 0.040961333 -0.06151144 -0.05626822
0.08818128 0.00017170841 0.0065393257 0.028780771 -0.064920284 -0.02311197 -0.07242199 0.0025069916
0.034746494 0.05479128 0.015363856 0.04399614 0.013887422 0.04562375 -0.028616685 0.06249065
-0.031501267 -0.016665878 -0.034416504 0.038125314 -0.086391136 -0.025607629 -0.047788903 0.041261118
-0.017063137 -0.051724624 0.066935204 0.058339663 -0.0014310562 -0.050617855 -0.0047493046 0.07890574
0.06334766 0.05653627 0.06697106 0.010040254 -0.08092583 -0.0035080807 -0.0074932505 0.04613528
-0.0038323158 0.045742236 -0.036350284 -0.06094503 0.053596076 0.064538606 0.015626648 -0.0052827536
0.06805193 -0.025064202 0.08252344 0.06454215 -0.025627416 0.038175445 -0.08111323 0.005909078
0.005343407 0.012440869 0.054020315 0.0661921 -0.07198497 0.036089513 0.029136127 -0.025424283
-0.00050744356 0.0011899951 -0.08685631 0.073337406 -0.015307784 0.0548623 -0.02862557 -0.039622195

model.decoder.model.6.weight f4 [1, 128]
00000000: 3aad 96bc d9a0 3b3d 373c c13b aca6 4f3d
00000010: a806 02bd 4bc9 18bd 8161 ddbc 5385 873d
00000020: 3d50 c0ba 43f4 e93c a30e 32bd 5262 3c3c
00000030: 3b6e 7b3d 475b 24bd 81a5 853c 5996 21bd
00000040: 0635 14bd 0778 febc 9d1d 813d a394 c3bb
00000050: 289e 823d 0bcc 90bd 8160 403d 64d5 11bb
00000060: 3abd 783c 3206 983a 0be2 6e38 8663 8738
00000070: 47d5 eebc e8a4 953c 5eb2 693d 2e2a 9bbd
00000080: a846 cbbc c9a4 92bb 56fb d5bc 42ea de3c
00000090: 0397 0fbd 500c 4e3d ac4c df3c 5a2c 873d
000000a0: 8c58 e93c b2f9 8a3d cacd 7c3c ec64 b53c
000000b0: 50d1 30bc c08c 87bd 9634 d2bc bc49 46bd
000000c0: 86a3 383d c93b 4a3d df58 1e3d 9473 7c3d
000000d0: 9921 003c c5d9 423d d8bb 743d ec1f a6bc
000000e0: 4f57 44bd aeae 613d 16a1 8b3c 498e 653d
000000f0: aa44 323b f437 63bd 0f33 433d d086 01bb
00000100: 682d 473c 9f8b 343d 61d1 abbc 4066 79bd
00000110: f186 5bbc b52f 143d 12d4 113d adc4 8e3c
00000120: a57f f23a dc2f 003c 25ff 8d3a 0702 4cbd
00000130: 1514 433d 3e17 853c 200f 2bbb b86d 0ebd
00000140: b2ef fabb b433 1ebd 51ea 2a3c 018b 173d
00000150: 3291 67bd 9728 f33b 42a5 843c ceda 7f3d
00000160: 1813 1b3c a045 18bc f718 81bd c6fd aebc
00000170: 9860 12bd c773 b9bb 5a4b 313d d729 b9ba
00000180: 70f2 86bc d491 683c 7067 3c3d c18f 993c
00000190: 133b 06bd b51a 48bd 5099 6cbc b272 363a
000001a0: 6a00 b3bc 7aa9 7b3d ef39 02bd f9a0 d93c
000001b0: 6019 e63c 3bf5 2a3d 86ad 55bd e66a ec3b
000001c0: bb14 ad3a cbad 5fbc 3579 333d 3d8c 8bbd
000001d0: 6955 eabc 771f e63c c34f 63bb e035 af3a
000001e0: 8ae0 163d b023 b83b 2401 f63c c435 883d
000001f0: 2ba3 90bc 82a5 4fbd 95c0 3cba 216e 713d
-0.018393148 0.045807693 0.0058970707 0.05069606 -0.03174463 -0.037301343 -0.027024033 0.066172265
-0.001467235 0.028558856 -0.04347099 0.011498051 0.06138442 -0.04012611 0.01631427 -0.039450023
-0.03618338 -0.031063093 0.063044764 -0.0059686466 0.06377822 -0.07070168 0.046967033 -0.0022252435
0.015181834 0.0011598526 5.695414e-05 6.455839e-05 -0.029154433 0.01826711 0.05705487 -0.075764045
-0.024813965 -0.0044752103 -0.026120823 0.027211312 -0.035056125 0.05030471 0.02725824 0.06600256
0.028484605 0.06785907 0.015429923 0.02214285 -0.0107920915 -0.06618643 -0.02565984 -0.048410162
0.045077823 0.04937342 0.038658973 0.06163366 0.00782051 0.047570962 0.059749454 -0.020278893
-0.047934826 0.05509823 0.017044585 0.056043897 0.0027201572 -0.055473283 0.047656115 -0.0019764192
0.012156822 0.044078466 -0.020973863 -0.06088853 -0.013398872 0.03617831 0.035602637 0.017427767
0.0018501176 0.007823911 0.0010833485 -0.04980662 0.047626574 0.016246434 -0.0026101544 -0.034772605
-0.0076579684 -0.038623527 0.010431842 0.0369978 -0.056534953 0.00742061 0.016192082 0.062464528
0.0094650015 -0.009293944 -0.0630359 -0.021361243 -0.03573665 -0.0056595537 0.04328475 -0.0014126849
-0.016473025 0.014194924 0.045997083 0.018745305 -0.03277118 -0.048853595 -0.014440849 0.000695984
-0.021850783 0.061440922 -0.03179353 0.026566016 0.028088272 0.041737776 -0.052167438 0.0072148917
0.0013205031 -0.013652275 0.043816764 -0.06813858 -0.02860518 0.028091175 -0.0034684993 0.0013367496
0.03683523 0.0056194887 0.03002984 0.0665088 -0.01765593 -0.05069495 -0.0007200328 0.058942918

model.pnode.func.model.0.weight f4 [128, 12]
00000000: 54d1 08be 523b 75be e78a 303d 17ee 77be
00000010: 45b0 353e ca90 983d 4132 3c3e 7130 5ebe
00000020: 2b25 ea3d 4416 8f3e c8df 80bc c641 343e
00000030: 1998 383e 6384 b43d 1a90 ecbd 202b 0b3e
00000040: 02fd 5dbe f6d4 3abe 0d4a 983d 098e 833e
00000050: 647c 2b3d 7270 bcbd 080b 3cbe ea91 82be
00000060: 5e86 863d 90e3 ddbc ef9a 263d 888e c83d
00000070: 44a8 023d d65e 9c3c 5785 b63d 7fab babb
00000080: b91d 15be bc1e 883e 43a5 4d3d ff6b 443e
00000090: 72c5 3abe 9712 ba3d a83f c03d 098a 293e
000000a0: c324 793e 468a 1d3e aa83 21be 5a24 163d
000000b0: b553 c23d 2772 71be dd9d 62be 8a1e 6dbe
000000c0: 08d9 0a3d 50fc d73d 0bdb 30be 0af0 f03c
000000d0: 64e0 6fbe 2594 66be 8bb3 89be c6e8 ce3d
000000e0: d035 03be c6ce 0cbe ca85 293d b4c9 68be
000000f0: 2c3b 8dbd 1874 d0bc 892f 84bd f214 17be
00000100: e613 e9bd fa9d 4a3e bd71 50be 4f87 763e
00000110: 9658 adbb 2ec4 e83d 1e6a 5b3e b64e 763e
00000120: 130a 873d 7dbf a63d 6ee9 9bbe d349 1bbe
00000130: 49c4 58be fb00 533e cd34 41bb a679 2bbe
00000140: 0f25 953e b4bb 1dbe 24a1 2f3e a9b6 a93c
00000150: 6623 d3bc 2173 123e 6c30 0ebe 7314 4bbe
00000160: 6d5b 503e 7806 603e 1bb2 8dbe 282d 8abe
00000170: 00f8 8ebe 4ab7 893e 10ce 7bbe df0d 4a3e
00000180: cf71 50be c5ed 05be a175 8f3e 2ef8 5dbc
00000190: 33b0 c23c b295 413e 47a5 923e 5512 34be
000001a0: b715 4fbe 8cac 59be 44b9 52be b379 4b3e
000001b0: 7000 e83c 6816 513d 0415 1a3d 81e2 55be
000001c0: d7c5 0b3e cc9c 93bd c635 ffbd 544a 92be
000001d0: d686 81be 05f8 3fbe fbc5 4f3e 3eba 59be
000001e0: 109d 82be 0ef0 79be 575f 623e ef1a 86be
000001f0: 5474 48bd 38b4 82be c6a7 97bd 3452 47bd
00000200: b1d3 18be b8db 713e 8940 2abe a207 89be
00000210: 2e72 04be 16c0 813d 04b7 92be 3949 433e
00000220: 6bd4 5b3e 5180 423e 4533 a63d eeae 793e
00000230: 4e00 88be 15f9 8abe 3ad4 903e 9aba 14bd
00000240: 01b2 cb3d 41ba 2f3e fef2 1fbe 8daf 443e
00000250: 3233 d03d 3be4 213d baa8 3b3e 1514 93be
00000260: a6bb 603e 09d1 413e 6013 36be c5d1 123b
00000270: e13d dabd e922 933e 5808 5bbe 1bc3 323e
00000280: eea3 823b e352 ecbd 5977 4ebe e503 d83d
00000290: 436f 7abc 1cab f6bd 8322 8c3e c6aa 573e
000002a0: 36b9 143e d861 393d 651f b0bb 9e69 22be
000002b0: 8832 87bd 1616 a2bd 9c5e e23d 4ae0 c9bd
000002c0: 17c5 c6bd bfaa 883e 2e90 85be cba6 393d
000002d0: d64a 593e c820 603e c777 8b3e 48b1 9ebc
000002e0: 748c f23d 0e37 0dbe 2db4 4bbe a2f8 2b3c
000002f0: 5115 febd ff69 0ebe 3440 723e ab4a 6ebe
00000300: 824a eb39 f21a 3b3e 7891 623e b0b2 d2bc
00000310: ce72 1d3d d496 253e 9e82 963c 4048 8abe
00000320: 0ff4 40be 0387 a43a 31d4 603e b3c6 0dbd
00000330: 8068 81be 861d 573e af56 66bd b9cd a03e
00000340: 64ba 90bd e826 39bd 1b24 823e 948c 75be
00000350: a6fd 4cbe 9cf3 853e 5675 49bc 51e5 acbb
00000360: 5895 84bd 8cb4 89be e571 a3bc 6c8f 923e
00000370: 8dfb 82be f31a acbd ce79 f8bd f0b9 3ebe
00000380: 3836 293c 0507 443e af86 60be 9f71 74be
00000390: c86b f53c 110c 19be a804 853e 296a d9bd
000003a0: 7c11 173e 0a1c 413e 1e2b dabd afa3 463d
000003b0: ab1e d5bd e257 87bd 2da1 073e da09 c43c
000003c0: 20a5 07bd dfe3 4e3e 20b0 893e a383 9b3e
000003d0: 040c d23c f09d 8d3e 28e2 b53d 2dfe 09be
000003e0: dad1 a2bd 2015 563e 7257 523e da2d 8fba
000003f0: 425e 8a3e bfcd b5bd bcaf a1bd f32e 29be
-0.13361102 -0.2394841 0.043101218 -0.24211918 0.17743023 0.07449491 0.18378545 -0.21698166
0.114328705 0.27946675 -0.015731707 0.17603216 0.1802677 0.08814313 -0.11550923 0.1359067
-0.21678546 -0.182453 0.07435999 0.25694302 0.041866675 -0.09201135 -0.18363583 -0.2550195
0.06568597 -0.02708605 0.0406751 0.09792811 0.03189875 0.01908819 0.08912151 -0.0056967135
-0.1456212 0.26585948 0.050206434 0.19181822 -0.18239382 0.09085577 0.093871415 0.16556562
0.2433043 0.15384778 -0.15772882 0.03665576 0.09488622 -0.23578702 -0.22130533 -0.23156181
0.033898383 0.10546172 -0.17271058 0.029411335 -0.23425442 -0.2251745 -0.26894793 0.10102992
-0.12813497 -0.13750753 0.041387357 -0.22733194 -0.06896052 -0.025445983 -0.06454379 -0.14754084
-0.113807485 0.19786826 -0.20355888 0.24075054 -0.0052901013 0.11365543 0.21427199 0.24053463
0.065937184 0.08141992 -0.3045153 -0.1516488 -0.21168627 0.20605843 -0.0029480935 -0.16745624
0.29129836 -0.15403634 0.17151314 0.020716982 -0.025773715 0.1430173 -0.13885659 -0.1983202
0.20347376 0.21877468 -0.27674946 -0.26987576 -0.27923584 0.2689765 -0.24590325 0.19731854
-0.20355915 -0.13078983 0.2801943 -0.01354794 0.023765659 0.1890476 0.28641722 -0.17585118
-0.20223127 -0.21257228 -0.20578486 0.19870643 0.028320521 0.05104676 0.0376177 -0.20887186
0.13649689 -0.07207641 -0.12461428 -0.28572333 -0.25298184 -0.18746956 0.20290367 -0.21262452
-0.25510454 -0.2440798 0.22106682 -0.26192424 -0.048939064 -0.2552812 -0.07405047 -0.04866238
-0.14924504 0.23618972 -0.1662618 -0.26763636 -0.12934181 0.063354656 -0.28655255 0.19070901
0.2146775 0.18994261 0.08115248 0.24383137 -0.26562732 -0.2714316 0.28286916 -0.03631077
0.09946061 0.17160894 -0.15620038 0.19207592 0.10166015 0.0395243 0.18326083 -0.2872626
0.21946582 0.18927397 -0.17780828 0.0022402864 -0.10656334 0.28737572 -0.21389902 0.1745724
0.003986827 -0.11539247 -0.20162715 0.10547618 -0.015285316 -0.12044355 0.2737008 0.21061239
0.14523777 0.045259327 -0.0053748363 -0.15860602 -0.06601435 -0.07914369 0.110532016 -0.09857233
-0.09705561 0.2669277 -0.26086563 0.04532508 0.21219954 0.21887505 0.2723982 -0.019371644
0.118431956 -0.13790533 -0.1989295 0.01049629 -0.124064095 -0.13907622 0.23657304 -0.23270671
0.00044878206 0.18271998 0.22125804 -0.02571997 0.038439564 0.16170818 0.01837283 -0.27008247
-0.18843101 0.0012552444 0.21955945 -0.034613322 -0.2527504 0.21007356 -0.05623501 0.31406954
-0.07066801 -0.04520312 0.2541817 -0.23979408 -0.20018634 0.26162422 -0.0122960415 -0.00527636
-0.064737976 -0.2689556 -0.01995177 0.28625047 -0.25582543 -0.08403578 -0.121326074 -0.18625617
0.010327868 0.19143303 -0.21926378 -0.23871468 0.02995862 -0.14946009 0.25980115 -0.106159516
0.14752764 0.18858352 -0.10652755 0.048495945 -0.1040624 -0.06608559 0.13245077 0.023930479
-0.03311646 0.20204113 0.26892185 0.30373868 0.025640495 0.2765956 0.088810265 -0.13475867
-0.07950182 0.20906496 0.2054117 -0.0010923699 0.27025038 -0.088771336 -0.07894847 -0.16521816

model.pnode.func.model.0.bias f4 [128]
00000000: af88 07bd 6fc7 10be 6008 58be 8979 cabd
00000010: 6d0d 463e 4f7b 87bc bff1 0bbe ba5d 3e3e
00000020: 365a 833d 1e18 443e 53dc 5e3d d0ef d3bd
00000030: 1ff1 84be a8d4 4237 55ba 32be 2696 963d
00000040: 9a90 16bd 8f08 103d 3846 77be e981 2e3e
00000050: 242c 1abe be10 59be 94db 38be 8482 22be
00000060: 2b2c eb3d dfb4 3d3e ffec 8e3e 9564 3b3e
00000070: d26f 413e 5b06 473e 8eb3 dfbc f076 7e3e
00000080: 606f 233e acb6 613e 93d3 71be a484 48be
00000090: dd1d 80be 79b3 e5bd 11d9 90be e0ed 083d
000000a0: ed90 00be b83a 433e 615a 45be c183 bf3d
000000b0: 4dc8 8d3e 7989 3cbe 1855 50be ca55 7dbe
000000c0: dbf8 0e3d 7050 7bbe c639 373e d2b3 0b3e
000000d0: 12ba 75be f496 28be 4838 45be aa7b 673e
000000e0: ba08 593e 6fc3 213e b58e b9bd cea6 88be
000000f0: 0022 5fbe 185a 85be fde5 693e 315c 07be
00000100: 46f2 82be 90df 87be 2c16 42bb 19a3 82bd
00000110: 56aa 2cbd 227e c4bc a419 87bd 4be4 3d3e
00000120: 6600 8ebd b50b 5fbe b746 57be e8a1 37be
00000130: 2a5c 33be 8424 0d3d e416 733e 5a97 b5bd
00000140: 8b4c a6bd 872c 9d3c b796 043e c103 d13d
00000150: f9f4 51bd e1fd 9e3c 8c4e 903e b05e 87be
00000160: df21 853e fc94 193e 8d3a 36be 44cb b73d
00000170: 673a 50bd 12a4 42be 0335 de3c 4dd4 e83d
00000180: bdd5 3c3c 113c 333d 7bbe 2f3d 2472 8cbe
00000190: 29e9 8cbe d0f0 47be 182d 1f3d 0300 34be
000001a0: e2e8 993e 66b4 023e d263 f7bb 8b25 afbd
000001b0: 730e 933d 6289 63be 2be0 173d 3980 083e
000001c0: 78b7 bf3d 4c5e 7c3e a499 203e 7a8d d93d
000001d0: bc80 5bbe d955 57bd 3760 863e a73c d6bd
000001e0: 55a2 6fbe 9905 76be 6f98 86be 240e f2bd
000001f0: e25c 153d 119d 623e c9af 6ebe 68bf 6ebe
-0.033089336 -0.14138578 -0.21096945 -0.09886462 0.19341059 -0.01653829 -0.13666438 0.18590441
0.06413691 0.19149825 0.054409336 -0.10348475 -0.2596521 1.1612814e-05 -0.17453893 0.07352857
-0.036758997 0.035164412 -0.2414788 0.17041744 -0.15055901 -0.21197793 -0.18052512 -0.158701
0.11483034 0.18526028 0.2791519 0.18300088 0.18890312 0.19436018 -0.027307298 0.24850059
0.15960455 0.2204234 -0.23615865 -0.19581848 -0.25022784 -0.11215872 -0.2829061 0.03342998
-0.12555285 0.19065368 -0.19272758 0.09351302 0.2769188 -0.18411817 -0.2034496 -0.24739757
0.034905296 -0.24542403 0.17893133 0.13642815 -0.23996761 -0.16463834 -0.19259751 0.22605768
0.21194735 0.15797208 -0.09060422 -0.26689762 -0.21790314 -0.260453 0.2284164 -0.13218762
-0.25575465 -0.26537752 -0.0029615266 -0.06378765 -0.042154633 -0.023985926 -0.065966874 0.18544118
-0.0693367 -0.2178181 -0.2102307 -0.17932856 -0.17515627 0.034458652 0.23739201 -0.08866759
-0.08120068 0.019186271 0.12948118 0.10205794 -0.051259015 0.019408168 0.28184927 -0.26439428
0.26002404 0.1499824 -0.17795773 0.08974317 -0.050836947 -0.190079 0.027124887 0.11368618
0.011525569 0.043758456 0.042906266 -0.27430832 -0.27521637 -0.19525456 0.038861364 -0.1757813
0.30060488 0.12764129 -0.0075497413 -0.08552083 0.0718049 -0.22220376 0.037079018 0.13330163
0.09361166 0.24645346 0.15683609 0.10622688 -0.21435827 -0.052572105 0.2624528 -0.10460787
-0.23401769 -0.24025573 -0.26288173 -0.11819103 0.036465533 0.22130229 -0.23309244 -0.23315203

model.pnode.func.model.2.weight f4 [128, 128]
00000000: 12d1 d4bc 8c03 833d 5f52 8c3d a82c 243d
00000010: 65c2 723d 516b ab3d 64d0 323c c097 b03d
00000020: 2346 ba3c 3add a43b 9efd 94bd d0f1 4dbd
00000030: 1561 383d cc01 8b3d 0088 adbd d760 2c3c
00000040: 8d9e 883d 131d 753c b214 aa3d 84cf fe3c
00000050: 6b78 a83d d302 883d 8fdd 14bd b97a afbd
00000060: cfdb 8a3d 2f35 b3bc b016 b43d e2d0 323d
00000070: 3537 4f3d 7f9d 903d 4aad 66bc 3c8d a93d
00000080: 5e28 aabc 006b d83c 0e6d ac3d f68b 5fbd
00000090: b2ef b0bd 5383 7abd fa19 543d c706 04bd
000000a0: 755a 6e3d c0b2 5ebd 353c 17bd f8bb 27bd
000000b0: 3438 02bd cb81 70bd 12a8 8f3d 2bf7 98bc
000000c0: 4e4b 5d3d 6ec9 483a 2284 adbd 65a6 453d
000000d0: 4375 aebc a815 d93a fb9a 1b3d db8d 373d
000000e0: bd64 233d 777a 27bc 2a27 b0bc cb97 36bc
000000f0: e006 98bd cf22 88bd 16e3 7b3c 7aba 09bd
00000100: be48 6ebd 1be6 0fbd 7a71 063b 87c7 9a3d
00000110: 092f 39bc eb2b 97bd d2d9 25bb 3e9b 7c3c
00000120: 1324 6ebd 476c a8bc 22a8 283a 8c09 8cbd
00000130: d372 a23d 8dfe 26bc 3f73 513d b619 9d3d
00000140: 4af4 4dbd 8db9 95bd 3ae3 a93b 02cc d4ba
00000150: 4627 bdbc 4fed 08bd 7cf2 fdbc e1ee 0d3d
00000160: 9b6c a6bd 7566 193d 07ad 5a3d 01cb 28bd
00000170: 057a a4bd e5c8 d8bb 2627 06bc ad9f 00bd
00000180: 45ad 8a3c e178 dbbb 2200 8f3c 7597 363d
00000190: b759 b43d a888 593d 3a81 443d 198a 27bd
000001a0: 5eba e4bc 2e31 813c 8ae2 a0bc b42c adbd
000001b0: 3ae3 4abc 9e56 9bbd 524f f0bc e04d 573b
000001c0: 7ea4 8abd 78f4 07bd a5b6 4a3d fac8 7cbc
000001d0: 2b76 bcbc d23c a5bd 9d3e 2c3d 8747 8cbd
000001e0: 328b 1dbd a0a3 a4bd aa30 2ebd fe0e 213d
000001f0: 52b6 25bb 85f8 06bd edc3 473c 697f 73bd
00000200: c3fb 82bd ab6d 013d db03 5b3d 3d92 0abb
00000210: 42d4 323c ec3b 99bd 48f9 1e3d e7a6 b8bc
00000220: 7253 eb39 7a00 64bd 6318 253d 004c a3bd
00000230: e561 763b 6e40 a53d ae1a 3f3d 097f eebc
00000240: 834d 96bd 7964 a6bd 9377 1dbd 1921 49bd
00000250: 9b43 4cbd 65c7 98bc d780 18bd 53d1 01bc
00000260: fe16 a33d d345 973d d765 b3bd 7c58 90bb
00000270: f2a9 1f3d f930 9c3c c477 1dbd 7912 c63c
00000280: d36b 023c d34e 093c 2edb 643d 3e17 a5bd
00000290: 18aa 943d fbe6 c4bb 01e6 33bd 65ad aa3d
000002a0: e6b1 84bc 3338 cabb 0b6b 54bd ff48 0c3d
000002b0: 6fa8 8dbb 58a1 29bd 9af9 63bb a187 843d
000002c0: 154f 983d 18ff 9abd 08f5 2e3d 5225 8f3d
000002d0: 60ef aabd 8a59 593d bf7c 8b3d 64fe 87bd
000002e0: 5661 8abd ce2b 94bd dde6 643b a158 213d
000002f0: 0477 353c 9e13 82bd 98bc b0bd 8406 f53c
00000300: afab 1c3c c65b 6abd 5f8d 5fbd 87ab 83bc
00000310: 3044 543d b8f7 a03c 4a47 02bc d1a7 db3b
00000320: 2038 213d f9a7 96bd bc7d 253c 873f 20bd
00000330: 5929 b6bd 6718 9c3d c5fc e03c e28b 97ba
00000340: de04 a7bd 3b02 af3d f895 5d3d d92f a2bd
00000350: 407a 2f3c 2ad3 a8bd aaa9 9dbd 7993 62bd
00000360: 58b3 76bd da19 9f3d dccd e93b 7c7b 913d
00000370: 8111 233c e589 a2bd cc9c 36bd 612a 80bd
00000380: 5fb4 883d ec8e 343c 2102 00bd 4a04 89bb
00000390: cf63 543d a559 aa3d dd13 d83c 1299 1ebd
000003a0: e3b5 563d 1c19 b6bc e282 afbd 7c58 debc
000003b0: 5c14 743d 6417 233c 6f08 c6bc d55b 26bd
000003c0: 2fca 1cbd 4e76 2bbd 3347 bf3b f43c a23d
000003d0: 02a6 543d af79 7d3d 6c4a 683d e79a 433d
000003e0: 0e70 573d d514 a53d e3d6 923d 49ba b2bd
000003f0: 0f66 0abc 350c 87bd b822 0dbd c070 8f3d
-0.025978599 0.06397161 0.068516485 0.04008165 0.05926742 0.08370078 0.010913942 0.08622694
0.022738522 0.005031255 -0.07274936 -0.05027944 0.04501446 0.06787452 -0.084732056 0.010521135
0.06670866 0.014960545 0.083047286 0.03110481 0.08226093 0.06641164 -0.036344107 -0.08568329
0.067802064 -0.021875946 0.0879339 0.043656237 0.05058976 0.0706129 -0.014079401 0.082788914
-0.020771202 0.02641821 0.08419238 -0.054576837 -0.08639468 -0.061160397 0.051782586 -0.032233026
0.058191735 -0.054369688 -0.036922652 -0.040950745 -0.03179188 -0.05871753 0.07014479 -0.018672546
0.054026894 0.000765941 -0.08472468 0.04825439 -0.02129615 0.001656224 0.037989598 0.04481302
0.039890993 -0.010222069 -0.02150305 -0.011144589 -0.07423186 -0.06647264 0.015373966 -0.033625104
-0.05817484 -0.035131555 0.0020514415 0.07557588 -0.011302718 -0.073814236 -0.0025306833 0.015417872
-0.05813987 -0.020559443 0.0006433745 -0.068377584 0.07932057 -0.010192526 0.051135298 0.076709196
-0.0502818 -0.07310782 0.005184558 -0.0016235115 -0.023090016 -0.03342944 -0.030999415 0.03465164
-0.081261836 0.037451226 0.053387668 -0.041209225 -0.08031086 -0.0066157454 -0.008188045 -0.03140228
0.016928324 -0.0066977595 0.017456118 0.044578034 0.08806174 0.05310884 0.047974803 -0.040903185
-0.027920898 0.015770521 -0.019639272 -0.08455792 -0.012383277 -0.0758488 -0.029334698 0.0032852814
-0.06769656 -0.033192128 0.04949059 -0.015428776 -0.023005566 -0.08068241 0.0420519 -0.0684958
-0.038462825 -0.080390215 -0.04252688 0.03932094 -0.0025285673 -0.03295185 0.012192708 -0.05944768
-0.06395676 0.03159873 0.053470474 -0.0021144294 0.010914864 -0.07482132 0.038811952 -0.022540523
0.00044884864 -0.055664517 0.04030646 -0.0797348 0.003759497 0.080689296 0.046656303 -0.02911331
-0.07339003 -0.081246324 -0.038444113 -0.04910383 -0.04986916 -0.018649766 -0.037232246 -0.007923442
0.0796337 0.07386365 -0.08759659 -0.0044050794 0.03898043 0.01906632 -0.038444296 0.02417873
0.007960278 0.00838061 0.05587309 -0.08061074 0.07259005 -0.0060089803 -0.04392052 0.08333854
-0.01619811 -0.0061712503 -0.051859897 0.034249302 -0.0043230574 -0.041413635 -0.0034786225 0.06471182
0.07436959 -0.075681865 0.04271415 0.0698954 -0.083464384 0.053063907 0.06810903 -0.06640318
-0.067568466 -0.072349176 0.0034927644 0.039391164 0.011075739 -0.06351398 -0.086297214 0.029910333
0.009562417 -0.05721643 -0.05457818 -0.016073002 0.05182284 0.019649372 -0.007951567 0.006703355
0.039360166 -0.07356257 0.010100778 -0.039123084 -0.08894605 0.07621842 0.02746428 -0.0011562074
-0.08155225 0.08545347 0.0540981 -0.079192825 0.010710299 -0.08243401 -0.076983765 -0.055316422
-0.06022963 0.07768603 0.007135136 0.07103631 0.009952904 -0.079364575 -0.044583127 -0.06258083
0.06675028 0.011020403 -0.03125203 -0.0041814195 0.051852997 0.083178796 0.026376659 -0.038720198
0.052419554 -0.02222877 -0.08569886 -0.027141802 0.05958973 0.009954307 -0.024173943 -0.04061492
-0.038278755 -0.04186087 0.005837345 0.07921782 0.05191613 0.061883625 0.0567116 0.04775515
0.052597098 0.08060614 0.07169893 -0.08726937 -0.008447184 -0.06594125 -0.03445694 0.07003927
