notebooks/lightning_logs/version_7/checkpoints/epoch=9-step=320.ckpt (torch, 717429 bytes, 40 tensors)

model.decoder.ff.freqs f4 [16]
00000000: 0000 803f cdcc cc3f cdcc 0c40 3433 3340
00000010: 9a99 5940 0000 8040 3433 9340 6766 a640
00000020: 9999 b940 cccc cc40 0000 e040 3333 f340
00000030: 3333 0341 cdcc 0c41 6666 1641 0000 2041
1.0 1.6 2.2 2.8000002 3.4 4.0 4.6000004 5.2000003
5.7999997 6.3999996 7.0 7.6 8.2 8.8 9.4 10.0

model.decoder.model.0.weight f4 [128, 42]
00000000: f160 7c3d cb60 d93d e57a a13d 7203 5e3d
00000010: 5066 81bd 21c2 a83d 210d 0b3e 1070 31bd
00000020: 6ebc 013e a711 d4bd a630 90bd 5d97 16be
00000030: b21c 3c3d 3978 d63d 5130 f1bc 1fa5 40bd
00000040: 4739 2abd 8f25 393d 3868 27bd 45dd a23d
00000050: 5d39 813d a9ea 073e b1cc 9bbd 1f97 d63d
00000060: 6e2f 20bc d4e1 12bb 6f60 043c fb77 e6bd
00000070: 3196 b33c 251d 41bd bd22 753d 20d4 643d
00000080: c1f1 c0bd cad9 d13b 6087 ad3c 4fe7 933c
00000090: f4c7 163e 99f5 cb3d 2803 01be 33ed 9dbd
000000a0: 678b a23d 6440 543d 77c2 01bd 1813 743b
000000b0: b80b 713d 83c1 833c 7081 573c de5f 9f3d
000000c0: cc37 7b3d 9566 acbc 2431 abbc ca43 e4bd
000000d0: b1f1 693c 51b6 633d e08a 063e ba58 ebbd
000000e0: ad40 7abc 8652 073e 6c5f d9bd 9b57 963d
000000f0: 6218 88bd a9a1 fdb7 9369 35bd 3cd2 2bbd
00000100: eb97 fc3d 3cab 273e 43b6 903d 5aaf 2a3d
00000110: 47ef 3c3c 5c24 f8bd b654 8f3d e620 e83d
00000120: 946b bfbd 6718 8a3b 4148 083e e7fa b2bd
00000130: 029a ffbd 2f0f 053c 4416 13bd cfba 183e
00000140: 987f 70bd 5f4b edbd 74fc a5bc 6549 47bd
00000150: 8ec2 ac3d 7231 103e 7ec5 88bd de42 513d
00000160: ecc8 f53b 25b6 1d3e 894e f3bd 9b13 07bc
00000170: 81f5 a3bc da73 503d 0fa7 f8bc fcda 1a3d
00000180: 3e06 b2bd 40d0 11be bc1c 25bc 2532 2dbd
00000190: f937 c93d 6ef4 d43c 4613 163d af9d b93d
000001a0: a781 eabd 0da0 acbd 4c7b c0bc 57f2 633c
000001b0: 3999 083e 2a3f bfbd 30d4 eb3d 1fd5 5ebb
000001c0: 4ffa cfbd 51ee e23d 4fad b13c 523e dc3d
000001d0: 7d11 0cbc eb1b 5e3c af40 26be 88f5 0dbe
000001e0: a4ee 12bc 87fe 0c3e 087f 8b3d 64db c4bc
000001f0: 4dd9 07be 1703 db3d 7431 d63d facd 06bd
00000200: f5d3 38bd ec33 e2bb e342 2fbd 41aa c3bd
00000210: 891b d3bc 3114 84bd 9688 cf3c 55f8 103d
00000220: 0b56 e8bd 4a60 d33c a0a0 88bd 7e4f 0abe
00000230: d55d 923d 2b4f 02be 1206 01bd c887 fbbd
00000240: d775 843d ff9e 67bd ed20 21bd baf8 e6bd
00000250: 54e4 a3bd c7b8 cabd 8ca9 c8bd 736d 7c3d
00000260: 9a55 ff3d a054 49bd 7b45 afbd 0caa 063d
00000270: ec51 58bd 8306 9f3d 3a89 93bd 0d13 e33d
00000280: 72c4 f8bd f482 babd 72e4 c6bd 82d2 c13d
00000290: 80b6 b93c 5279 9dbb 707f a5bd a537 1a3e
000002a0: 6384 65bd 694a e03c 6637 8abd 15d8 d73b
000002b0: d8c7 98bd 0a19 f73d 5b99 a0bd c8ae f73c
000002c0: 3756 733d c7c4 95bd c20c 113e 1bc2 8bbd
000002d0: f73f 713c 25b2 7e3b 6f5a dcbd 1550 5fbd
000002e0: 958b 4c3d 2559 283d a7d2 af3d 5fe0 633c
000002f0: 84db 14bd 7bca c63d 85a2 ebbb 2e89 463d
00000300: 689c 4dbd 6cff 8dbd 87be bdbd f0bb 883d
00000310: 20e6 9fbd 39e4 c2bc 253b b03d d175 91bd
00000320: d52f e53d f667 96bd b711 123e dead 4e3d
00000330: 0e2c bd3d 17ab debd abf9 0abe 55b8 b4bd
00000340: d161 93bd 50d8 693c 6599 dfbc d6c2 69bd
00000350: 4852 dfbd 28ff 03be 5c82 d53d df94 a6bb
00000360: 5e17 103d 833e e13d d542 fd3b 3254 0c3e
00000370: 1b15 2dbc 1090 133e d839 333d d45e 14be
00000380: f937 90bd 5efc b13c 8af2 ccbd 5062 46bc
00000390: cf0c dd3a d21f 31be cff8 5d3d a4fe 1b3d
000003a0: 494b 813d 7c12 123e 2fb8 123e 3e85 c6bd
000003b0: 9f21 4c3d 1a85 ba3d c1f9 bd3d 78f5 4abd
000003c0: 8a4f 7dbd f927 fdbd 6ac1 1f3d 9ccf 273e
000003d0: 5a6d e3bd 966c e0bb 1a9f bfbd f05e fabd
000003e0: 87c9 e3bd bd0d 0ebe 968a acbd ab2b 02bd
000003f0: b02c 3fbd 23e7 03be f078 ebbd 07c1 e6bd
0.061615888 0.10614165 0.078847684 0.054202504 -0.06318343 0.08240152 0.13579227 -0.04331976
0.12669536 -0.103549294 -0.07040529 -0.14706178 0.045925803 0.104721494 -0.029441984 -0.04703247
-0.04155853 0.045201834 -0.040870875 0.0795236 0.06309769 0.1327311 -0.07607401 0.10478043
-0.009776933 -0.0022412436 0.008079632 -0.11253353 0.021922203 -0.047146935 0.059847582 0.05586636
-0.09421111 0.0064041363 0.021182716 0.018054632 0.14724714 0.099589534 -0.1259886 -0.07711258
0.07936745 0.05181922 -0.031679597 0.0037242826 0.058849066 0.016083485 0.013153419 0.07781957
0.06133251 -0.021045009 -0.020897456 -0.11145742 0.014278815 0.055593792 0.13138914 -0.114915326
-0.015274209 0.13215074 -0.106139034 0.07340928 -0.06645276 -3.023523e-05 -0.044290137 -0.041948542
0.123336636 0.16373914 0.07066014 0.041671135 0.011531658 -0.1211631 0.06998579 0.113344
-0.09346691 0.004214335 0.13308813 -0.08739262 -0.124805465 0.008121296 -0.035909906 0.14915012
-0.058715433 -0.115866415 -0.02026198 -0.04865398 0.08435546 0.14081362 -0.06678294 0.05108916
0.0075007584 0.15401514 -0.11880214 -0.00824442 -0.020014526 0.050891735 -0.030353097 0.037806496
-0.08692597 -0.14239597 -0.010077652 -0.04228415 0.09825129 0.02599546 0.036639474 0.09063279
-0.114505105 -0.08428965 -0.023496293 0.013912759 0.133397 -0.093382195 0.11515081 -0.0034001542
-0.101551645 0.110806115 0.021689085 0.10754074 -0.008549091 0.013556461 -0.16235612 -0.13863194
-0.008968029 0.1376897 0.06811339 -0.024030395 -0.13266487 0.10693949 0.10458651 -0.03291128
-0.045124013 -0.006903162 -0.042788398 -0.09553958 -0.025769966 -0.06449164 0.025333684 0.035393078
-0.113445364 0.02580275 -0.06671262 -0.13506886 0.07146803 -0.12725513 -0.03149993 -0.122817576
0.06467789 -0.056548115 -0.03933804 -0.112779096 -0.080025345 -0.09898525 -0.097979635 0.061627816
0.12467499 -0.04915297 -0.08558174 0.032877013 -0.0528125 0.07764914 -0.07203908 0.11087618
-0.12146844 -0.091070086 -0.09711541 0.09463979 0.02267003 -0.0048057223 -0.080809474 0.15060289
-0.056034457 0.027379232 -0.06748848 0.0065870383 -0.07459992 0.12065323 -0.0784175 0.03023471
0.059408393 -0.07312923 0.14165023 -0.06824132 0.014724723 0.0038863507 -0.10759436 -0.05451973
0.049937803 0.04110064 0.085851006 0.013908475 -0.03634216 0.09706589 -0.0071910047 0.04847067
-0.05019799 -0.069334835 -0.09264856 0.06676471 -0.07807565 -0.023790466 0.08605031 -0.0710255
0.11190764 -0.07344048 0.1426457 0.05045878 0.092369184 -0.108724765 -0.13571803 -0.08824221
-0.071963914 0.014272764 -0.027294824 -0.057070576 -0.10904366 -0.12890303 0.10425255 -0.005083665
0.035178535 0.10998251 0.0077289143 0.13703993 -0.010564114 0.14410424 0.043756336 -0.14489299
-0.07041926 0.021726783 -0.10007198 -0.0121084 0.0016864779 -0.17297295 0.05419236 0.03808464
0.06313188 0.14264864 0.14328073 -0.09693383 0.04983675 0.09107418 0.092761524 -0.049550503
-0.061843432 -0.1236114 0.039002813 0.1638779 -0.111048415 -0.006848882 -0.09356518 -0.12225139
-0.11122423 -0.13872428 -0.08424871 -0.031779926 -0.046673477 -0.1288114 -0.11497676 -0.11267286

model.decoder.model.0.bias f4 [128]
00000000: f00f 113c 8159 f23d a4f7 b6bd 8d85 7e3c
00000010: 0bec 973d 6b15 d5bd 2761 3b3d 231d a7bd
00000020: 7c40 6dbd 00ac c6bc 1c1f 733c cf6d 3c3d
00000030: 9f15 093e 4c0f ebbd 63b1 50bd 2d2c e6bd
00000040: 3e69 ebbd 3ad1 873d 121e bf3d 5467 b73d
00000050: eea2 ae3d 6e9e c13a bc39 03bd 2263 82bd
00000060: bd8e 0e3e 83b0 9b3d 7000 93bd c64f b3bd
00000070: e920 e2bd a65d 0bbe 9da6 053d 59fe 65bd
00000080: f389 1dbe 93eb 34bd 3b99 d93c 81bc ed3b
00000090: eaf3 bc3d 87e8 8abd 3cb7 0f3e fcbb fd3c
000000a0: d0a5 81bd 398d babd 93d3 0abe e0fc b83d
000000b0: fb7e d33a dc25 11be 80f5 1ebe 8db5 023e
000000c0: d54e 8cbd bbb6 d7bd 2812 3e3b 98c2 85bc
000000d0: b246 ce3b ccc3 3bbd 8119 ecbd 7965 92bd
000000e0: bcff 28bd 0136 0e3e cf8d 20be 0f29 36b8
000000f0: a777 823d df65 903d 5197 9fbd 9dd0 c03d
00000100: 4ff9 253e 2d52 123d 43ce 263c e0f3 10be
00000110: 5515 0cbd 2031 0b3e 4a56 99bd f558 5b3d
00000120: 3cd9 aabc 492a f1bd 99a0 ed3d 305a 073e
00000130: 9fb6 b83d ba02 503d e038 3fbd ff27 213d
00000140: f7a0 033d 32a4 88bd 1c8a b43d d8af cdbd
00000150: dc2f d33c 94f9 b23d 0662 d4bc 0ba2 ad3d
00000160: c94d 69bb d9e1 5abd b13e a0bd f917 5a3d
00000170: d94e cbbd 50cb af3d 17a0 0ebe ebdb 863d
00000180: 8107 70bd 66c8 91bd 19db c9bc 81c9 193e
00000190: 9985 ffbd 9707 b6bd 6faa a2bd 9343 24bd
000001a0: ab04 15be 41a6 e5bd 282f f7bd a810 debd
000001b0: b72b c23c 8641 883d d0c1 5c3c bd36 70bd
000001c0: 7633 00be 6f4f d4bc e6ac b33d 9bd7 c2bd
000001d0: 640c 92bc d462 603d ccc9 6f3d 7e43 f2bd
000001e0: a583 983d f903 433d 64c0 86bd b10e c43d
000001f0: a081 e43d f050 b73b bc36 00be e594 be3c
0.008853897 0.11833478 -0.089339525 0.015534771 0.074180685 -0.10404476 0.04574695 -0.08159854
-0.057922825 -0.024251938 0.01483896 0.04600316 0.13387154 -0.11477527 -0.05095042 -0.112388946
-0.11494683 0.06631704 0.09331907 0.08955255 0.0852717 0.0014771947 -0.03203748 -0.06366564
0.13921638 0.07602026 -0.07177818 -0.0875545 -0.11041433 -0.13609943 0.032629598 -0.056150768
-0.15384655 -0.044169974 0.026562324 0.0072551374 0.092262104 -0.06782632 0.14034742 0.030973427
-0.06330454 -0.09108967 -0.13557272 0.09032607 0.0016135866 -0.14174598 -0.15523338 0.12764569
-0.068509735 -0.105329 0.0029002521 -0.016328141 0.0062950486 -0.045841023 -0.11528302 -0.071482606
-0.041259512 0.13887788 -0.15679096 -4.343042e-05 0.06370478 0.0705068 -0.07792533 0.0941479
0.16208385 0.0357229 0.010181013 -0.14155531 -0.03420003 0.13592958 -0.074871615 0.053551633
-0.020855539 -0.117756434 0.11602897 0.13217998 0.09019207 0.05078385 -0.0466851 0.039344784
0.03213593 -0.06671943 0.08815405 -0.10043305 0.025779657 0.087390095 -0.025925647 0.08478173
-0.0035599342 -0.05343804 -0.078244574 0.05324552 -0.09927148 0.08583701 -0.13928257 0.06584915
-0.058600906 -0.07118301 -0.024640607 0.15018274 -0.124766536 -0.088881664 -0.07942664 -0.040103506
-0.14552562 -0.11213351 -0.12069541 -0.10843021 0.023702485 0.066531226 0.013473943 -0.058645952
-0.12519631 -0.025916783 0.08773212 -0.0951378 -0.017828174 0.05478175 0.058542058 -0.11829279
0.07446984 0.04761121 -0.06579664 0.09573115 0.111575365 0.0055943653 -0.1252088 0.023264358

model.decoder.model.2.weight f4 [128, 128]
00000000: d6d0 52bd 129f 0e3c c9be 91bd 556d 48bd
00000010: e209 41bc 6894 9f3d cd72 1dbd 80b6 14bd
00000020: f210 453d f55c 993d 4018 863d fb2f 2b3d
00000030: b4d7 8bbd 2772 7c3c 4f03 5ebd e77c a3bd
00000040: bd38 c4bc 4958 0cbb d9ee 723d fe86 363d
00000050: 0363 993c c864 7bbd 161d 973b 7970 1aba
00000060: 3efd a43d b890 04bd 6ee3 533d 0d15 06bd
00000070: 3c05 a6bd 2f78 8a3c 31f1 953d 2a85 acbd
00000080: f3e1 4cbd 5a60 1abc bc1c 6bbd 3d0e 49bd
00000090: af2e 50bd 5738 e9bb eab0 aa3d 8926 003d
000000a0: d3c8 afbd d821 69bd ab9d 87bd bb18 97bb
000000b0: bf02 edbc d083 bebc 94c7 88bd 0bbc b8bc
000000c0: d713 84bd 083e 893d 6f4c e83c 7f5c 94bd
000000d0: 19af 983d 5085 3e3d 2754 e63c 4165 d5bc
000000e0: 2242 25bb 62ac a7bc a33b 683d 5135 933b
000000f0: ec60 5bbd 19ef df3c 8ebf 05bd 1337 7fbd
00000100: 4ba0 0c3d d372 86bc 10aa 003d 72f6 a7bd
00000110: fbfc f5bc 3ea2 953c 955a 703d d4b4 99bc
00000120: c38c 49bc d25e 1cbd 42f8 1fbd 8512 d8ba
00000130: e335 cd3c fbd3 f0bc d063 863d 3beb 01bd
00000140: 6e85 403a f761 833c 804f 363d 3894 9b3d
00000150: d5a0 88bc fa41 343d 8480 f83b 8a6d 22bd
00000160: 85e1 75bd f877 7bbd 2bc2 993d eb20 5ebd
00000170: ea7a c03c 0a36 88bd ec04 91bd 9e16 5bbc
00000180: f16b 86bc 5ec0 65bd 8d57 41bd 8f82 3a3c
00000190: 8dd7 bcbc a486 a0bd 06b1 963d 206e 113b
000001a0: 81bf e53c ff06 933c 9e45 543a ac74 e3bb
000001b0: 5273 d43a 6136 5b3d b05f 2abd 820d 27bd
000001c0: 9ff1 503d ae3c 893b 0d99 af3d 0cec 363d
000001d0: 2f02 afbd c96d 0fbd a496 2a3d 5caf ac3c
000001e0: 6c67 db3b 7f8e 91bd 0721 4dbd 22bc 0b3c
000001f0: 02c6 3fbc 175e 8abd 10d2 243d 8725 153d
00000200: 8b76 673d ffb1 1f3d 4736 403b 10b5 b0bd
00000210: c954 8d3c 9d8c 12bd 8b72 e1bc 7f17 a4bb
00000220: e379 8abc 1d0c 313c 9805 22bd 8271 ec3b
00000230: d4f4 403d c5a5 43bd 8782 e5bc d75e 60bd
00000240: fd32 7e3d f7e5 123d 15c8 803d 37ea b5bc
00000250: 1ad6 0fbd 2962 11bd cb1d 7b3d f66a a0bd
00000260: 546c d3bb fc1e 863d 39a8 653c 2b71 8e3d
00000270: 1003 6d3c 66d3 47bc 1708 b93d 031f 6dbc
00000280: 003c 8dbd 1e2c f3bc 4886 5ebb d9ab 0abd
00000290: e784 6f3c 0b5e 343d fb2a 053d 411f 9f3c
000002a0: eaeb 37bd 69cd 6c3d cf77 7cbd f393 223d
000002b0: 8806 38bd 0051 86ba 62cd 453c c92e a73b
000002c0: b8e9 2d3d 2360 b3bc b7bf 503d 0d18 923d
000002d0: fc2f f3b8 619c f2bc b301 9b3d 60fe 3ebd
000002e0: b779 68bd 9791 92bb 9b83 0abd eb89 a8bc
000002f0: a4fb 36bd 8c08 42bc 1cd8 513c 5854 a83d
00000300: 67f8 a4bd 27d7 3dbc 1734 96bd d04a 653d
00000310: cac6 56bd a6fd cf3c 5d13 093d ab1d fdbc
00000320: 11e5 70bd ecac 5f3d f10c 833d 5d11 b03c
00000330: 5f5c 723d 7a70 9a3d 0ecf f2bc 6ed3 de3b
00000340: 0cd2 35bd 03fd 9b3d 3947 133d 2d7f 63bc
00000350: d9c5 19bd dfa7 b53c 312f 3e3d f515 843d
00000360: 7fa3 01bd a2d7 0dbd 3830 533c 53bf 07bd
00000370: ea36 17bd 6711 833d c902 e43c ab86 90bd
00000380: e2a4 9b3d b5f8 50ba edb4 083d b7df 12bc
00000390: 4f4c a0bd bb8f a13b 8922 a63d 15e2 c53c
000003a0: 3bee 90bd c981 fc3c b01d 26bd a90d d23c
000003b0: e96b adbb 0cc5 4e3d 9a23 803d 254f 56bd
000003c0: 34bb c33c d6f9 b8bc 2b8a 223b b9d2 9e3c
000003d0: ea15 16bc bcf1 5fbc 2626 88bd 3a9b 1a3d
000003e0: 14c1 99bd c507 7bbd d85b 8abd 7435 77bd
000003f0: 8c32 b9bc 2deb 493d 8826 3f3d ce59 7e3d
-0.051468693 0.0087049175 -0.071164675 -0.048932392 -0.011782141 0.07791978 -0.03843956 -0.036306858
0.048111863 0.07488433 0.06547594 0.041793805 -0.068282515 0.015408075 -0.054202374 -0.079828076
-0.023952836 -0.0021414927 0.059309814 0.044562332 0.01872397 -0.06137541 0.0046116216 -0.00058913935
0.080561146 -0.032364577 0.051730566 -0.03273492 -0.08106467 0.016903011 0.07321394 -0.084238365
-0.05002017 -0.009422386 -0.05740045 -0.049085844 -0.05082577 -0.007117312 0.08334525 0.03128675
-0.08583226 -0.05691704 -0.0662187 -0.0046111024 -0.028931974 -0.023256212 -0.066786915 -0.022550603
-0.06449097 0.06701285 0.028356759 -0.07244205 0.07455272 0.046513855 0.028116299 -0.026049258
-0.002521642 -0.02046794 0.0566975 0.00449244 -0.05355923 0.02733569 -0.032653384 -0.062308382
0.034332555 -0.016412174 0.031412184 -0.082013026 -0.030027857 0.01826584 0.058680136 -0.018762983
-0.012301627 -0.038176365 -0.039055116 -0.0016485011 0.02505011 -0.029397955 0.065620065 -0.031718474
0.00073441013 0.016037924 0.04450941 0.0759663 -0.016678253 0.044008233 0.0075836796 -0.039655246
-0.060029525 -0.061393708 0.07507738 -0.05423061 0.02349611 -0.06650932 -0.07081017 -0.013372092
-0.016408892 -0.05609166 -0.047202636 0.011383667 -0.023052001 -0.07838181 0.07357983 0.0022190884
0.028045418 0.017947672 0.0008097532 -0.0069413986 0.0016208685 0.053518657 -0.04159516 -0.040784366
0.051011678 0.004188142 0.08574114 0.044658706 -0.08545338 -0.03501681 0.04164757 0.021079712
0.0066956785 -0.07107257 -0.050080325 0.008528741 -0.011704924 -0.067562275 0.040239394 0.036412742
0.056509536 0.03898811 0.0029329227 -0.08628285 0.017252343 -0.03577863 -0.027520439 -0.0050076838
-0.016903823 0.010806111 -0.039556116 0.0072156796 0.047108486 -0.047765512 -0.028016342 -0.054777946
0.062060345 0.035863843 0.062881626 -0.022206409 -0.035116293 -0.035494003 0.06130771 -0.07832901
-0.0064521227 0.065488786 0.014017158 0.06955179 0.014466062 -0.012196397 0.09034746 -0.014472726
-0.0689621 -0.029684123 -0.003395455 -0.033855293 0.014619089 0.044035 0.032511692 0.019424083
-0.04490272 0.057813082 -0.061637696 0.039691877 -0.044928104 -0.0010247529 0.012072893 0.005102013
0.04245922 -0.021896427 0.050964084 0.071334936 -0.00011596081 -0.029615583 0.075686835 -0.04662931
-0.0567567 -0.004472922 -0.033816915 -0.020573577 -0.044673577 -0.011842858 0.012807872 0.08219212
-0.080551915 -0.011586941 -0.07334154 0.05597955 -0.052435674 0.025389504 0.033465732 -0.030897936
-0.058812205 0.05460827 0.06398953 0.021492654 0.059170123 0.075409845 -0.029639747 0.0068001067
-0.04438977 0.076166175 0.035956595 -0.013885302 -0.037542198 0.022174774 0.046431724 0.064495005
-0.031650063 -0.03462947 0.012889914 -0.033141445 -0.036917605 0.063998036 0.02783336 -0.07056936
0.07599808 -0.00079716305 0.03337567 -0.008964471 -0.07827055 0.004930464 0.08112056 0.024155656
-0.07076689 0.030823605 -0.040555656 0.02564128 -0.005292405 0.050480887 0.062567905 -0.05232157
0.023892976 -0.022580069 0.0024801593 0.01938759 -0.009160498 -0.013668474 -0.06647901 0.03774569
-0.0750753 -0.061286706 -0.06755799 -0.06035371 -0.02260711 0.049296547 0.046667606 0.062097363

model.decoder.model.2.bias f4 [128]
00000000: 23c8 14bd a73a 96bd 5ddf 383d beb2 6fbd
00000010: 6acc 633d eb42 993d 40d8 f9bc 6078 823d
00000020: 05ae 993d f047 e9bc 516f d3bc 1c9b 883d
00000030: 54db 07bb 37f0 dfbc 16ea 1a3c c289 7bbd
00000040: b37d 253b fcf7 04bc 41af 2a3d c187 9fbc
00000050: f54d 36bd 433a 2fbd baaa 74bd 1bbc 413d
00000060: 2ec9 da3b 61c2 633d 796e 4c3d 51d3 2ebd
00000070: be84 993d 5db6 7abb 580a 0cbd 4b58 803d
00000080: 7bac 62bd d601 073d 6e8d 69bd 4ee2 5fbd
00000090: 7eb3 95bd a875 1abd 5173 5dbd 2fa0 ef3b
000000a0: cd46 13bd 3d04 003d 695a 64bd 2378 65bc
000000b0: 4455 993c 1ffb 91bc 1cd5 85bd 2c2c 563c
000000c0: 49ea 863d 85e4 a43c 612a 1abd d1ec a73d
000000d0: bdb4 44bd ed01 0ebd f1eb ef3c b851 7c3d
000000e0: e939 873c 90e8 94bc 73a9 1d3c 46ff 6bbc
000000f0: 5673 543d 3b03 58bc e8d4 a8bc b450 dabc
00000100: 4320 0f3d ef59 3fbd 02d7 9abd d2d5 9ebc
00000110: 3de9 21bd d5d1 1fbd e54f 6d3d 99e9 033c
00000120: b193 58bd e03c e23c 8493 443d c9ba 283a
00000130: c748 8e3d d65d 453c 4546 58bd 5b69 8d3d
00000140: 4cce f33c df43 cbb9 7a7f 5d3c dd2d 193c
00000150: 661f 883c 8e34 7cbd 8051 8e3d 4f9c 4a3d
00000160: 1623 31bd eb72 7e3d a84e 82bd 9bd6 95bc
00000170: b878 293d 6424 3cbd 3a5b c13c c31c 5abc
00000180: 5984 5a3c 7de4 fabc ba95 2f3d d538 553d
00000190: f6d3 ad3d d085 bebb 6dcc 8d3d 97c2 6e3d
000001a0: d241 1f3d e0f3 b4bb 6062 8f3d 907a 2d3d
000001b0: 8b2d 323d 27af 1c3d c028 9abc dbd5 12bc
000001c0: 1680 8a3d 4899 1fbd 3a1f 06bb 62bb 78bb
000001d0: 6e4d 11bd 31aa 843c 6dd2 003c e5c9 313d
000001e0: 8697 0dbd db31 6ebd 2fb4 58bd 9b86 a2bd
000001f0: 9d5b a3bd 845a 0bbd 54ba 04bd 9e37 913d
-0.036323678 -0.07335406 0.04513489 -0.05852007 0.055614866 0.07483467 -0.030498624 0.06370616
0.07503895 -0.028476685 -0.025809916 0.0667021 -0.0020730095 -0.027336223 0.0094552245 -0.061410673
0.0025251925 -0.008115765 0.04167104 -0.019473912 -0.04450794 -0.042780172 -0.05973313 0.047298532
0.0066768145 0.055605296 0.049910042 -0.042681996 0.07496022 -0.003825567 -0.034189552 0.062668405
-0.05534027 0.032960735 -0.057019643 -0.05465918 -0.07309626 -0.037709862 -0.054065052 0.0073127965
-0.035956193 0.031254042 -0.055750284 -0.014005694 0.018717416 -0.01781994 -0.06534788 0.013072055
0.06587655 0.020128498 -0.037638072 0.08199466 -0.048023928 -0.034669805 0.02928731 0.06160137
0.016507106 -0.0181773 0.009622919 -0.014404124 0.051867805 -0.013184364 -0.020609334 -0.02664981
0.034942877 -0.046716627 -0.07560541 -0.019389067 -0.039529074 -0.03901847 0.05793752 0.0080512995
-0.052875225 0.027616918 0.047992244 0.00064365246 0.06947475 0.012046298 -0.05280139 0.069048606
0.029761456 -0.00038769745 0.013519162 0.009349314 0.016616534 -0.061573558 0.06949139 0.049465474
-0.04324635 0.062121313 -0.06362659 -0.018290808 0.041374892 -0.045933142 0.02360307 -0.013312521
0.013337218 -0.03062653 0.0428674 0.052056152 0.08487694 -0.0058142915 0.06923757 0.058291044
0.03888113 -0.005522236 0.070011854 0.042353213 0.043500464 0.038252976 -0.01881826 -0.00896212
0.06762712 -0.03896454 -0.002046539 -0.0037953486 -0.035474233 0.016194435 0.007862669 0.043405432
-0.034568332 -0.058153015 -0.05290621 -0.0793583 -0.07976458 -0.03402187 -0.03240426 0.07090686

model.decoder.model.4.weight f4 [128, 128]
00000000: 0a8a 0cbd 7d9e 18ba 4ad2 14bc 2481 993c
00000010: 39f8 3abd 672c 32bd 99c0 0b3d 9a58 b83b
00000020: 9926 723d 9515 68bc fabb afbd c99d a43c
00000030: 1d64 583d 5b4f 873d c0d2 0bbd d520 883d
00000040: a0a1 a03d f5a8 53bd 1cdc cdbc 4e5c 9d3d
00000050: d81f ec3c 47c9 87bd 6628 503d 20e2 7bbd
00000060: 5e3a 1ebd 1784 73bd 8594 21bd acdf 37bd
00000070: 09e9 8fbd a005 513c 4ea4 44bd e099 9fbd
00000080: 5431 adbd 41be f63c 6106 0e3d 0e67 90bc
00000090: 597c 9d3a 68c3 a0bd 05a8 613d 7835 a13d
000000a0: b46e c73c c1ff ccbc 4436 593b 74dd 5a3d
000000b0: e1eb 933d 6448 ef3c 443a 95bc a19d 313d
000000c0: 9a8f bebc 5b88 be3d be7e 343d dcb5 3ebd
000000d0: 6e8a 21bd 465b b03d 4d02 9c3c 3f21 8d3c
000000e0: b07c 903d e69e a73d d867 2d3d 63f9 9d39
000000f0: 34fc 8ebc 511f 783d d85c 05bd c620 41bc
00000100: 03bb fe3c c10e b5bc 58e9 3e3d a1a4 9d3b
00000110: 9035 3b3d a0ed 16bd ff81 06bd 889b 383d
00000120: 8885 b9bd aac6 333d 419b 053d 0dde be3b
00000130: 48b1 b53c 7b19 863d 1c2e 623c c9fa a53d
00000140: f098 493c fada 28bd 5189 8a3c 181e 6fbd
00000150: fa54 0f3d 82ea be3c 0471 283d de05 833d
00000160: b4f7 a638 9abb 863d 56f3 48bd aac8 69bd
00000170: eae1 c4bc 6ed5 9d3d 27f5 bb3d 2f1b c03c
00000180: 63ae 173c 283b 1fbd 49fe 003d 29d9 aaba
00000190: dba6 9b3d 6f64 613d eab6 5d3c 5cb1 26bd
000001a0: 5dbc 963d 0dce 17bd eb9e 9cba c18a 50bd
000001b0: dcbf a5bd 4e2a 93bd 1cf8 613d 7196 2f3c
000001c0: 23a4 c93a a17a 3dbd b6c0 0e3d e2bb 9bbd
000001d0: 27e3 883c 5c87 8f3b 40f8 b53d 963c 933c
000001e0: 0721 a63c 0abe a4bd 0fdf 5e3b e3a0 e7bc
000001f0: ebb7 2dbc 2980 b2bd a74f 02bd 3822 a13d
00000200: 35bd a9ba 1167 80bd 1e3d b93d 5f7b b73d
00000210: fe38 08bc 0a13 24bd 5d4b 463d 8414 2f3d
00000220: 6e74 6bbd 5d4d 91bd 01bc a73d 539d 6bbd
00000230: 0bc1 f13c f729 58bd fa38 153d 8a44 71bd
00000240: 7e0d 453d 2f45 9b3c 7886 553d e773 7cbc
00000250: 9953 64bd f412 84bd 8f4d 643d 9b08 963c
00000260: 96d7 86bd 7033 02bb 1c13 9d3c d31e 8dbb
00000270: 9e0a 653d a5ba 7bbc 4374 79bd 6811 57bd
00000280: 2fc0 86bd e0fc f6bb 6623 52bd 2871 293d
00000290: d639 6a3d 867c 1f3d 6d4b fabc a3cc 45bd
000002a0: fe87 03bd c677 8e3c f4f3 08bd 37c2 ffbc
000002b0: 3ef1 32bd ed12 053c 949d 9fbd 6d36 edbc
000002c0: 77a8 79bd f517 c63b 6b3e ec3b 11a3 bc3b
000002d0: b965 883d 7d3b 4c3d 6017 8cbd 8a2e f73b
000002e0: a7e1 723c f834 023d cab2 2c3c 3c2a 56bd
000002f0: c93c d53c d15f e03c 38d7 91bd 9da9 2fbd
00000300: 2c3f 183d 0a56 863c d3a4 cd3b d317 58bd
00000310: 2b4b 8e3c ac4c 2cbd d36d 613d 1455 203d
00000320: 6a11 2d3c 3259 96bb 503f 00bd 165e 963d
00000330: 615c 893d 9a47 453d 1c19 7fbd e0ad c43b
00000340: 4157 773d 88c5 a13c 90b1 c1ba 9373 e7bc
00000350: 76a5 c03c ac43 883d e41b 9bbc edfa 0f3d
00000360: 6316 773d 3f97 873d e9e1 863d f38a a3bd
00000370: 84ab b13c 701b 8a3d 72a3 91bd 79bd 63bd
00000380: 9ac0 5d3d 3301 953d 6e17 0fbd a027 bcbd
00000390: f4a3 31bd 1f4c 02bd 7c1d 55bd 0261 893d
000003a0: 8fd3 60bd 1818 d73c 2982 863c c767 313d
000003b0: a725 9f3d 64f0 f83c 796d 963b b507 263d
000003c0: 7482 be3b 1ff2 bd3b e995 d1bc 3368 b0bd
000003d0: bf3d 3f3d 4496 85bd 5c68 50bd c37b 28bc
000003e0: 55e5 ab3d 573c 9ebd 72aa 383d 31e5 803d
000003f0: ae48 db3c 59fa abbd 8781 91bd 29cd 743c
-0.03431133 -0.00058219564 -0.00908334 0.018738337 -0.04564688 -0.043499377 0.034119222 0.0056257965
0.05911884 -0.014165302 -0.085807756 0.02009477 0.05282985 0.06606933 -0.034136534 0.06646887
0.078433275 -0.0516748 -0.02512937 0.07683621 0.028823778 -0.066301875 0.050819777 -0.061494946
-0.038629882 -0.059452143 -0.03944828 -0.044891044 -0.0702687 0.012757689 -0.048008256 -0.07793021
-0.08456674 0.030120017 0.034674052 -0.017627265 0.0012015208 -0.07849771 0.055091877 0.078715265
0.02434478 -0.025024297 0.0033143917 0.05343385 0.07222725 0.029209323 -0.01821626 0.043363217
-0.023261834 0.093033515 0.044066183 -0.046560153 -0.039438657 0.08611159 0.019044066 0.017227767
0.07055032 0.08184604 0.04233536 0.0003013118 -0.017454244 0.06057674 -0.032559246 -0.011787599
0.031095034 -0.022101762 0.046609253 0.004810885 0.045705378 -0.03684771 -0.032838818 0.0450702
-0.09058672 0.043890633 0.032618765 0.0058248104 0.02217926 0.06547829 0.013804939 0.08104474
0.01230453 -0.041224457 0.01691118 -0.05837831 0.03499315 0.023305181 0.041123405 0.063976035
7.961635e-05 0.06578751 -0.04906019 -0.057076134 -0.024033505 0.07706724 0.091776185 0.023450462
0.009257886 -0.038874775 0.031492505 -0.001303469 0.076001845 0.05502742 0.01353238 -0.040696487
0.07360146 -0.03706174 -0.0011949217 -0.050913576 -0.08093235 -0.07185803 0.055168256 0.01071702
0.0015384 -0.046259526 0.034851752 -0.07604195 0.016709877 0.0043801498 0.088852406 0.017973226
0.02027942 -0.080440596 0.0034007465 -0.028274959 -0.0106029315 -0.08715851 -0.031814244 0.07867855
-0.0012950065 -0.06269658 0.0904486 0.08959078 -0.008314369 -0.04005722 0.048411716 0.042744175
-0.057484083 -0.07094834 0.08190156 -0.057523083 0.029510995 -0.052774396 0.03643129 -0.058903255
0.04810857 0.018953888 0.052130193 -0.015408493 -0.055743787 -0.064489275 0.05573803 0.01831465
-0.065840885 -0.0019867085 0.019174151 -0.004306653 0.05591833 -0.015364324 -0.06090189 -0.052506834
-0.06579625 -0.0075374693 -0.05130329 0.04136768 0.057184063 0.038937114 -0.030553544 -0.04829086
-0.032112114 0.017391097 -0.033435777 -0.031220539 -0.043687098 0.008122188 -0.077937275 -0.028956616
-0.060951676 0.0060453364 0.0072095892 0.0057567437 0.06660027 0.04986142 -0.06840396 0.0075433897
0.0148243075 0.031788796 0.0105406735 -0.05228637 0.026029961 0.027389439 -0.07121128 -0.042886365
0.03716962 0.016398448 0.006275752 -0.052757096 0.017369827 -0.042065307 0.055036377 0.039143637
0.010563234 -0.0045882696 -0.03131038 0.07342164 0.06707073 0.048163988 -0.062279806 0.006002173
0.060385946 0.01974751 -0.0014777649 -0.028253352 0.023516398 0.066535324 -0.018934198 0.03515141
0.060324084 0.06620645 0.06586058 -0.07985487 0.02168823 0.067435145 -0.07111253 -0.055600617
0.054138757 0.07275619 -0.034934454 -0.09187245 -0.04336925 -0.031810876 -0.05203007 0.06707956
-0.054889258 0.026256606 0.016419487 0.04331186 0.077708535 0.030388065 0.004590687 0.040534694
0.005813891 0.0057966853 -0.025584178 -0.086136244 0.046689745 -0.065228015 -0.050880775 -0.010283413
0.08393351 -0.07726353 0.045084424 0.06293715 0.026768055 -0.083973594 -0.071047835 0.014941492

model.decoder.model.4.bias f4 [128]
00000000: 8b84 95bd cc93 81bd 6433 b0bc acde 003d
00000010: b657 903d 534d 85bc 3b69 a13d a308 a6bb
00000020: 105f c33c b98a 823c dacc ae3c cb56 573d
00000030: ce4d 50bd fb3a fe3c d7f3 043c ec40 62ba
00000040: 9cde 48bd b93b 06bd c1e1 cbbc d875 76bd
00000050: 561c e2bc 2406 773d 745d 12bd f7b9 893d
00000060: d596 28bd 1922 33bd dc04 3bbd 3849 34bd
00000070: b893 1cbc 3ed5 1c3c 8244 03bd a835 933c
00000080: 3eae 9e3d 6287 063c 36c0 b5bd ae55 a8bd
00000090: 8c36 823d aca7 58bd 3049 8f3d 2c86 2bbd
000000a0: 980f 9abd a07c 5ebd 8a1f 9c3d 5160 a73c
000000b0: 742f 58bc f39a 883d 96cc 5ebd f674 df3c
000000c0: d749 7a3d 50c3 8a3b c5b9 4c3d a690 95bd
000000d0: 9ca9 89bd e55b 8ebd b996 b3bc d2bc de3c
000000e0: e981 0d3d 52a8 a5bc bed9 9bbd 3f2e a4bd
000000f0: 1be8 b7bd 0e7a c13b cff6 6fbc 0886 e83c
00000100: 661e 7cbd 640f 6bbd 793f 9b3d c34f a93c
00000110: fb6e 5dbd 64b6 8b3d 63e6 4ebd e0d2 18bd
00000120: c930 893c 78eb 8d3d 774e 83bd 8b63 fcba
00000130: 7557 a53d 0b13 52bc af38 7239 5f63 ae3c
00000140: b193 80bd 5fd0 abbd a2b9 953d 308a 773b
00000150: 92c3 40bd 11ea 48bd 4ce5 9b3c a7e8 30bd
00000160: fcca 6b3c 2da0 953d 3c04 ca3c cbfb fd3a
00000170: 6337 633d 2ee7 8ebd eb90 133d 00f6 60bc
00000180: 5040 80ba f3e2 8dbd 8945 1b3c 7a8b 5fbd
00000190: d455 313c fa6d ae3d 726e 963d 603f a13d
000001a0: e2e2 60bc b71c 3b3d f33f 35bd 4f85 17bb
000001b0: 04f5 80bd 7368 81bd 3446 15bd 1c43 70bd
000001c0: 724f 543d 8e74 8bbd 1145 74bd 250c a3bc
000001d0: b7e1 b8bc 7bd6 e8bc 0f66 d23c daf8 743d
000001e0: cdea 6f3d aeee a23c aefe 9b3d 9d36 99bd
000001f0: 8470 913d e0aa 2f3d b5f4 103c 4ab8 0abd
-0.07300671 -0.06327018 -0.02150888 0.031462356 0.070479795 -0.016272223 0.07881399 -0.0050669475
0.02384904 0.015935289 0.021337915 0.052573007 -0.05085545 0.031033983 0.008114777 -0.000863089
-0.04904042 -0.0327718 -0.024887921 -0.06017098 -0.027601402 0.06030859 -0.035733655 0.06724923
-0.04115947 -0.04373369 -0.04565893 -0.04401514 -0.009556703 0.009572325 -0.032047756 0.017969921
0.07748078 0.008210989 -0.08874552 -0.08219467 0.0635806 -0.05289428 0.06996381 -0.041876003
-0.075225055 -0.05431807 0.07623203 0.02043167 -0.013194907 0.06670179 -0.054394327 0.027277451
0.061105575 0.004234709 0.04998185 -0.0730298 -0.067218035 -0.06951121 -0.021922456 0.027189646
0.03454772 -0.020221863 -0.076098904 -0.08016633 -0.089798175 0.0059044426 -0.014646246 0.028384224
-0.061552428 -0.057387725 0.07580466 0.020667916 -0.054060917 0.068218976 -0.050512683 -0.03731048
0.016746895 0.06929678 -0.0641145 -0.001925574 0.08073322 -0.012821923 0.00023100035 0.021287618
-0.0627817 -0.08389353 0.07310797 0.0037771575 -0.04706151 -0.049051348 0.019030236 -0.043190625
0.014391657 0.07305942 0.024660222 0.0019377408 0.055472743 -0.06977688 0.036026876 -0.013730526
-0.0009784792 -0.06928053 0.009477028 -0.054576375 0.010823686 0.0851707 0.073452845 0.07873416
-0.013725968 0.04568168 -0.04425044 -0.002312023 -0.06296733 -0.0631875 -0.036443904 -0.05865775
0.051833577 -0.068093404 -0.05963618 -0.019903252 -0.022568567 -0.028422585 0.025683431 0.059807636
0.058573533 0.019889202 0.07616936 -0.0748112 0.07101539 0.04288757 0.008847405 -0.033867158

model.decoder.model.6.weight f4 [1, 128]
00000000: 1891 3bbd 2dca 633d 7171 4abd 7136 67bb
00000010: 37b2 cc3c f1a5 0dbd 9738 12bd e3f9 a33c
00000020: b20b 233d 99cf d13c 89c9 7c3b 0e64 313d
00000030: 1c1b 1d3b 0e12 fc3c 5ee4 15bc 545b 323c
00000040: 5cd6 7bb8 c4f4 c83c 1a14 023d bdb8 8bba
00000050: 998e ffbc 7d1e 8dbc 3116 223d 1b8f 24bd
00000060: 6dcc 283d d507 533c 9867 b0bc 815a 203b
00000070: 5646 8d3c 87eb f93c a713 133a 6a75 34bd
00000080: 1024 32bd d21e 233c cdbc 09bd 6114 8abd
00000090: 1d89 003d 224f 23bd 7a7a 8c3d 4ae6 133d
000000a0: 4abc 41bd ca19 823d c530 e23c 2c53 133d
000000b0: a040 b8ba 4f14 2bbb e02f 74bd 2646 0a3d
000000c0: c2a5 403d a558 8abc b65f f83c 3868 a5bd
000000d0: 8e40 f03b 9de5 6abd 61fe 943c c9de 85bd
000000e0: 27ae 9b3d 4643 473d 2cf6 7a3d e605 19bd
000000f0: c8f9 9ebd 75a9 6f3d 3fa1 57b9 ae39 f33c
00000100: 191a c5bc 4836 d7bc 11f3 fabc 867e 88bc
00000110: 1c05 42bd 4520 513d 1e87 4d3b abbb 96bd
00000120: 709c 3a3d 2e6a 483d db89 3cbd c595 9c3c
00000130: b894 003d 99e1 593d 1afe 673c 7151 ccbc
00000140: 5d58 213c 5bcc 99bc 8f6f 633d b8d5 ef3b
00000150: 037b 7dbd ee94 e7bc 5f0e 563d 7e45 ac3b
00000160: 4c7d 253d 318e 40bd 887f 62bb a6d8 dd3c
00000170: 4ad2 673d 248f d03c cceb 463d 9f48 433d
00000180: 544b df3b a416 14bc aaca b53c 27c0 71bc
00000190: ed39 6fbb dde4 9c3d 8630 063d 8e00 f3bb
000001a0: 29cd 003d 67bb dfbb 4a47 95bd 4bb6 393d
000001b0: b7cc 4c3d e5f0 afbc 72c0 0a3d dc4e 63bd
000001c0: 36dd 8abc 44e3 e4bc a161 a43c 3a31 42bd
000001d0: 885c 863d 45a0 a1ba 7dfd afbc f877 5c3d
000001e0: 38ed 293b 5878 0e3d fd57 a73c 171d 273d
000001f0: 69e6 8bbc 6274 6dbd dfe6 9cbc b270 db3c
-0.04579267 0.05561273 -0.049424592 -0.0035280252 0.024987323 -0.034582082 -0.0356985 0.020016616
0.039806075 0.025611686 0.0038572273 0.04330831 0.0023972457 0.030770328 -0.009148685 0.010886032
-6.00427e-05 0.024530776 0.03175745 -0.0010659915 -0.031195926 -0.017226452 0.039571945 -0.04017554
0.04121058 0.012880285 -0.021533772 0.0024468007 0.017245453 0.030507816 0.00056105334 -0.044057287
-0.043491423 0.009956079 -0.03362732 -0.06742168 0.03138076 -0.03987039 0.06859298 0.036108293
-0.047298707 0.06352575 0.027611146 0.03596799 -0.0014057346 -0.0026104634 -0.05961597 0.033758305
0.04703308 -0.016887972 0.030319076 -0.08076519 0.0073319143 -0.057347883 0.018187704 -0.065366335
0.07601576 0.04864814 0.061269924 -0.03735914 -0.07762486 0.058511216 -0.00020564067 0.02969059
-0.024060296 -0.026271 -0.030633481 -0.016661894 -0.047368154 0.051056165 0.0031361054 -0.073600136
0.045559347 0.048929386 -0.046029907 0.019114384 0.03139183 0.053193662 0.014159704 -0.024941178
0.009847728 -0.018774202 0.055526312 0.0073191784 -0.06188489 -0.028269257 0.0522598 0.0052573076
0.040402696 -0.047010604 -0.0034560878 0.027080845 0.05659703 0.02545888 0.048564717 0.04767668
0.0068143997 -0.009038601 0.022191364 -0.014755285 -0.0036503032 0.0766084 0.03276112 -0.0074158376
0.031445656 -0.00682776 -0.07288988 0.045339864 0.04999992 -0.021477172 0.033874936 -0.055495128
-0.016951185 -0.0279404 0.020066084 -0.047410227 0.06560618 -0.0012331089 -0.021483177 0.05382535
0.0025928747 0.034782737 0.020427698 0.040799227 -0.017077642 -0.05797232 -0.019153057 0.026787136

model.pnode.func.model.0.weight f4 [128, 12]
00000000: af9b 903e 3dc9 5dbe 1736 6b3e 8837 933d
00000010: bdae 8b3e fae4 5f3e 978e 93be 2a1d fabd
00000020: fc0b 893e 5892 70be 328c 0dbd 5ad9 433e
00000030: 0eb5 94be 1531 68be f590 7abe 3773 8c3e
00000040: 5e4c 2b3e 6a5d 3d3e 4d54 86be a830 20be
00000050: 24f9 24be 042e 203e 7a75 bb3d 755b f73c
00000060: ee55 a1bd 704e 623e c546 a6bd 3bf1 0f3e
00000070: deb2 3d3e bc9f 62be 3552 8bbe 5cc9 63be
00000080: 2a29 6f3e 7368 4cbe b18b 81be 8d07 8abe
00000090: c00a b53b a37f 273e e82f cd3c 5efc fabd
000000a0: ec3b 7e3e f20c 8fbe 1b90 963e d3bf 95bc
000000b0: 8908 673e ac8c 36bc e8be 01bb dd56 56bc
000000c0: 0f67 d0bd bba3 623e beed 6abc c592 86be
000000d0: 992f 763d 18b4 753b a8c5 fdbd 793e 45be
000000e0: ebb2 3dbe 60e4 393e b02a 8dbe 6cd8 7d3e
000000f0: 38e5 7dbe 4f28 0b3d 9b9c fb3d be4d 5bbe
00000100: 43ad f6bd 6bbb 7f3d 6571 d63d b9e2 d03d
00000110: 0f08 823d 8283 6ebe c882 9a3d 11e5 033e
00000120: dffe 273e 69a0 edbd f776 3fbe 1930 2fbd
00000130: 75f0 063e 3e04 343e e744 61bd 0bb2 5fbe
00000140: a772 613d 07e8 063e 85d3 de3d 27d3 773e
00000150: 0520 5f3e ebfc 09bd e943 213e 450b c53d
00000160: e6ee 623e eeb8 e3bd 0428 253e 626f 893e
00000170: 6318 4e3d 9187 50be 9990 573e 1e0b b9bd
00000180: ba9d 8d3e ebde 063d 7128 8abe da81 56bd
00000190: 0a37 f0bd 7b1d 20be 34b1 ec3d a91d 81bd
000001a0: 81b8 54be cf69 5f3d e218 463e 97cd 2bbe
000001b0: a178 5e3e 13ef 80be d9b3 c63d 7a6a 93be
000001c0: 0f78 0d3e 3f3d 76be fc50 883d 4a9c ecbd
000001d0: eda6 64bd b38c b83d 56e6 163e 98c7 203e
000001e0: 193e e0bd fbce 233b 657a cf3c c9b3 903c
000001f0: d969 83be 213f 38be 4fc8 84be 50c1 0fbe
00000200: 607e 5abe d8cc f13c a453 e83d e0a3 d1bd
00000210: 7589 163b 117a 43be 382c d23c 7924 3ebe
00000220: 8c70 aa3d 37d0 8e3e 46ea 0f3e 33c6 87be
00000230: 86f6 90bd 1ff9 1e3d 1a9e babc 0193 753e
00000240: 7db1 ee3c 23b8 8a3e 0e8f 673e d04c de3d
00000250: f0aa 153e 0583 403e a0f2 6e3d ae34 aebd
00000260: 1559 01be c412 67be f3c2 15be 6b42 efbd
00000270: 95fd 553d dd6d 98bd 99e2 a63d 171c e33d
00000280: a9f7 453e d8e8 91bd 1ebd d6bd d462 bfbd
00000290: 16ad 773e 013a 493e dbd0 143e 8403 90be
000002a0: e576 7abd 3d62 1abe d2ca 89be 5b24 f43d
000002b0: 6355 123e f6e2 ad3d 499a f4bc 4f0d 00bc
000002c0: 15c6 863e ce10 29be 2a6e 1a3e 559d ef3d
000002d0: af88 ab3d e5cc 923e a619 053e e44a 453e
000002e0: a698 3dbe e7bc 893e 71e7 ce3d 3276 673d
000002f0: ce7a 8abe e84d 513e 6e3c 84be 5dbb 853e
00000300: 24d5 643e 2d33 a83d d621 253e 9666 5cbd
00000310: 67c5 3c3e 20c5 68be 4235 3ebe 4d97 563e
00000320: 6168 753e 6e06 993d d608 f0bd 0c55 50be
00000330: 74c6 4dbe 5f5c 563e c396 58be 3b61 193d
00000340: b7a9 7a3e 48e2 1ebe c49d c2bd 761c 233e
00000350: e92e b83d 973e 2ebe 0194 083e 0f10 8d3e
00000360: a030 c0bd 5a66 323d 5ebf d53d 3292 1c3e
00000370: 096a 343e 4dc6 423e ada1 1dbe 5fd0 ce3c
00000380: e462 ccbd f4cb f8bc 8138 4bbd 51ca e33d
00000390: b840 68be f9fb 94bc 1592 febc 960f 8e3e
000003a0: 9cf1 603d e88f 83be 69ed 503d 588b 39be
000003b0: 4d3e 163d e359 073e 2b54 833e fc95 14be
000003c0: 52d2 bd3d 0bac 7ebd 1699 533e 98c0 403d
000003d0: 6c06 c63d aefe 66ba 250c 99bd e804 55bb
000003e0: e649 39bd 5987 8f3d a7b3 d5bd abde f9bd
000003f0: caf5 463e b315 903e d524 923e 857d 783e
0.28243777 -0.21658798 0.22969852 0.07188326 0.27281752 0.21864691 -0.28819725 -0.12212594
0.26766956 -0.23493326 -0.03455753 0.19125882 -0.29044384 -0.22674973 -0.24469359 0.27431652
0.1672835 0.18492666 -0.2623619 -0.15643561 -0.16110665 0.15642554 0.09153266 0.030194977
-0.07877718 0.22100234 -0.08118967 0.14056866 0.18525264 -0.22131246 -0.27211156 -0.22244781
0.23355547 -0.19961719 -0.2530189 -0.26958886 0.005524963 0.16357283 0.025047258 -0.122551665
0.24827546 -0.27939564 0.2940682 -0.018279945 0.2256185 -0.011141937 -0.0019797627 -0.013082233
-0.10175907 0.2213277 -0.014338909 -0.2628385 0.060103986 0.0037491377 -0.123912156 -0.19262113
-0.18525283 0.18153524 -0.2757163 0.2478959 -0.24794471 0.03397399 0.122857295 -0.21416375
-0.12044766 0.062434595 0.10470847 0.10199494 0.06349193 -0.23292354 0.07544476 0.1288035
0.1640582 -0.116028614 -0.18697725 -0.04277048 0.13177665 0.17579743 -0.05499735 -0.21845262
0.05504098 0.13174449 0.10880188 0.24201642 0.21789558 -0.033688467 0.15748562 0.0962129
0.22161445 -0.11119257 0.16128546 0.2684279 0.050316226 -0.20364214 0.21051253 -0.090353236
0.27659398 0.032927435 -0.2698398 -0.05236993 -0.11729248 -0.15636246 0.11557236 -0.06304485
-0.20773508 0.054544266 0.1934543 -0.16777645 0.21725704 -0.251824 0.09702272 -0.28792173
0.1381533 -0.24046801 0.066560715 -0.11553247 -0.055823255 0.09011211 0.14736304 0.15701139
-0.10949344 0.0024995196 0.025326917 0.017663853 -0.25666693 -0.17992832 -0.25934073 -0.14038587
-0.2133727 0.029516622 0.11344078 -0.10236335 0.0022970114 -0.19089533 0.02565585 -0.185686
0.08322248 0.2789323 0.14054212 -0.26518402 -0.070782706 0.0388118 -0.022780467 0.23981859
0.029137367 0.2709361 0.22613165 0.108544946 0.14615989 0.1879998 0.058336854 -0.085061416
-0.12631638 -0.22565752 -0.14625148 -0.1168259 0.052243788 -0.0744283 0.08148689 0.11089342
0.19332756 -0.071244895 -0.1048529 -0.09345022 0.24187121 0.19651033 0.14532797 -0.28127682
-0.061148543 -0.15076537 -0.26912552 0.11920997 0.14290385 0.08490555 -0.029858725 -0.007815673
0.26323 -0.16510317 0.15081087 0.116999306 0.0837568 0.28671947 0.12998065 0.1926685
-0.18515262 0.26901934 0.10102738 0.056509204 -0.27046818 0.20439875 -0.25827354 0.2611951
0.22346932 0.08212886 0.16126189 -0.05380877 0.18434678 -0.22731447 -0.18575004 0.20956154
0.23965599 0.074719295 -0.11720435 -0.20344943 -0.20095235 0.20933674 -0.21151261 0.03744624
0.24478804 -0.15516007 -0.09502748 0.15928826 0.089933224 -0.17016064 0.13337709 0.27551314
-0.093842745 0.04355464 0.10436891 0.15290144 0.17618574 0.19020958 -0.15393706 0.025245843
-0.099797994 -0.03037069 -0.049614433 0.11122573 -0.22680938 -0.018186556 -0.031075517 0.27746266
0.054917917 -0.2569573 0.051007662 -0.18119562 0.03668051 0.13217883 0.25650153 -0.1451034
0.09268631 -0.06217579 0.20663866 0.04705867 0.096691936 -0.0008811754 -0.074730195 -0.0032504145
-0.04523649 0.070082374 -0.104346566 -0.12200674 0.19429699 0.28141555 0.28543726 0.24266632

model.pnode.func.model.0.bias f4 [128]
00000000: 582f 0ebe 2b17 2c3e b99c bc3c 04f1 823e
00000010: a7ce ee3d 7506 6c3e 3cb5 803e 640b 0f3d
00000020: 0572 66bc a9f3 833d 6dba 4e3e 21cf 123e
00000030: 683e b1ba 4fb3 923e 2d75 393d c331 06be
00000040: b1e5 78be 1597 51be 908c 71be ae24 ca3d
00000050: 284b 2c3e 6ff5 4cbd e08b bcbd 5596 463e
00000060: cc87 9d3d 92de 743d 7ebc 7bbe 9c3d 653e
00000070: ab67 043e dc19 7bbe 87fe f1bd d3f1 8c3e
00000080: 1e8a 783e 0c67 a33d a070 5c3d 34d3 7cbd
00000090: 83d7 023e 3889 fa3d f3db 843e f31e 313e
000000a0: a80a 273c 3bd7 763c 3413 7c3e 7705 4b3e
000000b0: 647c 503e a4cc 483e ce8e 0abe 7d48 063e
000000c0: b495 603d ea61 0cbe 4740 b03d 3bf0 d7bd
000000d0: a3fc 6cbe 0ce2 123e 613b 2abe ce7d 30be
000000e0: 19c6 2ebe 8fc4 003e 8ee6 1bbe 9e53 de3d
000000f0: db63 f23b c854 093e c4a2 ee3c 697f 0f3e
00000100: cac7 293e 7621 4b3e 3d66 9f3e 8627 8fbd
00000110: fb35 91be 7f13 4c3e ffd2 3f3e 791d 013e
00000120: 07da 633e d919 87be ff1b cdbd ca22 27be
00000130: 3767 9fbc 4a39 e4bd 6bf4 d1bd 94a3 5f3e
00000140: a725 0d3d 4235 2f3e e75c 86be cbab 7cbe
00000150: 110a e6bc 2930 a13d 5a0c 3ebe 6c6c 07bc
00000160: e7c1 d2bd e262 2abd f846 7abe a79c 923e
00000170: fa16 d63d 03e7 523e a666 5a3e e3d5 a23c
00000180: 7342 4bbe c187 4bbe 4257 0f3e 62d6 c5bd
00000190: 7784 fcbd 9a96 393d 2e84 96bb a1f2 d73d
000001a0: c407 38be c06d ec3d c865 8bbe 28c4 993d
000001b0: 32f4 fcbd 0dc8 73be 0193 e63d e587 673e
000001c0: ce72 f53c 1162 90be 059e 6b3e 4b31 2d3d
000001d0: f490 fbbc ce74 e4bc 79a2 c63d 0a1f 413e
000001e0: 3275 9f3d 568e 2f3e 4aa4 e03d 953b e93d
000001f0: 6c58 d13c 6be7 643e 1b2d 4a3e 8b79 88be
-0.13885248 0.16805713 0.02302395 0.25574505 0.116605096 0.23049338 0.2513827 0.034922972
-0.01406527 0.06442959 0.20188303 0.14336826 -0.0013522627 0.28652427 0.045277763 -0.1310492
-0.2430637 -0.2046779 -0.23588777 0.09870277 0.16825545 -0.05003875 -0.092063665 0.19393285
0.07691917 0.059782572 -0.24583623 0.22386783 0.12930171 -0.24521583 -0.11816125 0.27528247
0.24271438 0.07978639 0.053818345 -0.061724856 0.12777524 0.12233204 0.25949058 0.17296962
0.010195412 0.015065963 0.246167 0.19826303 0.20359951 0.19609314 -0.13531038 0.1311359
0.054830268 -0.13709226 0.0860601 -0.10543867 -0.23143248 0.14344043 -0.16624214 -0.1723549
-0.17067756 0.12574981 -0.15224668 0.108557925 0.0073971576 0.13411248 0.029130347 0.14013447
0.1658012 0.19836983 0.3113269 -0.0698996 -0.28361496 0.19929312 0.18732832 0.12608899
0.2225114 -0.26386908 -0.100151055 -0.16321865 -0.019458396 -0.111437395 -0.10251697 0.21839744
0.034459736 0.1711016 -0.26242754 -0.24674909 -0.028080972 0.07870514 -0.18559399 -0.008265596
-0.1029089 -0.04159821 -0.24441135 0.2863514 0.10453601 0.20595936 0.2132822 0.01987738
-0.19849567 -0.19876005 0.1399813 -0.09660031 -0.12329953 0.04530964 -0.0045933938 0.10544325
-0.17971712 0.11544371 -0.2722609 0.07508117 -0.12351264 -0.23806782 0.112585075 0.22610433
0.02996197 -0.2819982 0.23009498 0.042283338 -0.030708767 -0.027887728 0.09698958 0.18859497
0.07786025 0.1714414 0.10968836 0.113883175 0.025554858 0.22353904 0.19743769 -0.2665523

model.pnode.func.model.2.weight f4 [128, 128]
00000000: f84b a53d 55f4 113d b7e5 34bc a1a1 1a3d
00000010: e856 f3bc 004c 343d 050f 6abc 9e61 9dbd
00000020: 81a0 a5bd 00d7 7cbd 12bc e73c d148 b3bc
00000030: 9852 9f3d 4aaf 82bd 0105 ae3c 835d 68bd
00000040: 965d a73d c964 b13d 1a30 003d cda4 0a3b
00000050: 2c18 2f3c 9553 a2bd 26c1 7e3d 9a6a 423d
00000060: 82ae 80bd 8075 3bbd 6b28 a03d 12f4 b83d
00000070: 9ee1 443d aa8d 083d 861e a43d e758 2abc
00000080: 794c bdbd c6ad 51bd f901 b03c 314e c2bc
00000090: b142 403d 9896 4b3d 71a9 c6bc 67a8 46bd
000000a0: c156 0c3c 97a8 56bd a440 04bc 52a6 4e3d
000000b0: c6ff 1abc d07a a23d 78fa a93d acfa b0bd
000000c0: 6b69 94bd 285b f83c 68fb 813c 4f98 1b3d
000000d0: 36de bc3d 11f9 cdbc f0ba 7b3d 2f9f 5b3d
000000e0: 4018 653d 70e6 743c 8c95 b0bd 50eb 4cbb
000000f0: a431 71bd bbfa aa3c 95da 893d 8abb b6bd
00000100: ed52 883d c3db aabd 32b8 183d 153b 8d3c
00000110: 8982 b43d 0d53 2b3d d191 aeba 8650 33bd
00000120: ad5b 593d 0ddb a83d cde2 22bd fd2e 6b3c
00000130: 2951 61bd fde5 0ebd 61fe d7bb be8d 1dbd
00000140: 3dba 39bb 3beb 85bb ee0f 803d c66b aabd
00000150: 0aff 73bd 2ff2 943d cf21 a4bd 138d 9d3d
00000160: ab3e 38bc c6ca 993d 840f 493d b2f0 a5bd
00000170: 8601 d13c ab4b a8bd 8382 093d 8e19 0f3c
00000180: a532 d03b 1dbb a13d 659d 0d3d 1996 e73c
00000190: fb0c 75bc c489 80bd 1120 06bc 7ed5 cc3c
000001a0: 3729 203d 4465 863d 5209 8abd df9e f6bc
000001b0: e93e 81bd f395 3abd 76d0 30bd 6491 c23c
000001c0: 52a6 01bc e083 e33b 0daf 633d 0be1 1fbd
000001d0: ba1b 003d 0369 1c3d 5e71 3c3c 3463 90bd
000001e0: b2f3 1abd 1c9e 8abd 397d 363c 320f 95bc
000001f0: 573d 80bd 44b4 6abd 1454 a0bc 9fe9 683d
00000200: ae9d 3cbd 14dd 093b 1641 683d 5ba1 0bbd
00000210: 79eb 583c db68 94bd e1f9 513d 71e3 a3bd
00000220: 0f64 273d 4b7b 063c 7600 75bd 0b93 aebd
00000230: 5f6b b5b8 5552 81bc 8fcb 99bd 7899 af3d
00000240: 51d4 033d 7f57 6e3d 1877 10bc de34 8ebb
00000250: 2553 2ebb 7c63 3cbd 6376 b9bb 4a89 ff3c
00000260: 5f84 283d aaeb 2abd 8509 2a3d 712e aa3d
00000270: 0eb9 90bd 722c 253d af12 3a3d d9ef fd3c
00000280: 4326 22bb dcec 5bbd 36ad 7fbc bf60 d3bc
00000290: 1227 af3d 2544 a63d fb7f 41bd c6c7 1d3d
000002a0: 6e2e 8a3d 3a60 b0bc 1e34 a03d f323 313d
000002b0: e22d 3e3d dcae 9ebd 1c8c 563d 07f9 72bc
000002c0: e6ad 233d 0a89 173d 8328 a8bd 4b57 ad3d
000002d0: 9747 643d 95a8 a7bd 875a 6b3d 807f 373c
000002e0: cde7 0f3d 19b5 6abd 2562 8c3d 7092 8c3c
000002f0: 0757 15bc 1672 6cbd 6424 0cbd 3e50 f1bc
00000300: 2269 a33d 3943 88bd c653 bfbc 9f06 b8bd
00000310: d7f9 4ebd 67ae 17bd ab02 523d 0bf6 a6bd
00000320: 449e afbd adc4 91bd 4ef2 9f3d 9893 babc
00000330: d1a4 4d3d e7de 56bd 2f0d e6bb 55e0 2b3d
00000340: cd5f 783d 1910 963d 82e8 92bd 5580 a93d
00000350: 605f 1a3c 731b b33c 6252 933c b7cd ae3d
00000360: e75e a03d 74e3 b2bd 409f 20bd 4701 9cbd
00000370: 5fc7 7dba 7a00 a93d 06d3 803d bdcd 5bbd
00000380: c3e6 a73d 18bd d63b 1d24 953d 7b9d 6fbd
00000390: 5c25 4cbc a724 9cbc 5226 8bbd 62ae b1bc
000003a0: f7f8 2c3d 6475 853d 969d 023d e9de 9e3d
000003b0: 130a b73d 60c2 a33d 5943 543d f5fc ba3a
000003c0: 89a1 e33b f39e 88bd dcf7 24bd 01a9 1bbd
000003d0: 16bb dcbb 8dd2 9f3d 7bfd 91bd 4e8f 96bd
000003e0: 3853 833d b342 86bd 7a46 08bc c349 a2bd
000003f0: 517c 4e3d 84dd b13c 60fb 5c3d 273f 5b3d
0.080711305 0.035633404 -0.011041096 0.037751798 -0.029704526 0.04401779 -0.0142858075 -0.076846346
-0.08087254 -0.061728477 0.028287921 -0.021885308 0.077794254 -0.0638109 0.02124262 -0.056729805
0.08172147 0.08661801 0.031295873 0.0021155358 0.010686915 -0.07926098 0.06219592 0.047464944
-0.06283285 -0.045766354 0.07820209 0.09030928 0.048066728 0.033338226 0.080136344 -0.0103971725
-0.092431016 -0.051191114 0.021485316 -0.023718925 0.046938602 0.049704164 -0.024250718 -0.048500445
0.008565606 -0.052406874 -0.008072052 0.050451584 -0.009460395 0.07933581 0.08299726 -0.08641562
-0.072466694 0.030316904 0.01586695 0.03798705 0.09222071 -0.025143178 0.061457574 0.053618606
0.05593133 0.014947519 -0.08622274 -0.0031268187 -0.05888523 0.02087151 0.06731144 -0.08922489
0.06656442 -0.083426975 0.037285037 0.017240087 0.0881396 0.04182725 -0.0013318603 -0.043777965
0.053065944 0.082449056 -0.039767075 0.014354465 -0.05500904 -0.034887303 -0.0065916036 -0.038465254
-0.0028339766 -0.0040868795 0.06253038 -0.083213374 -0.059569396 0.07272755 -0.08014261 0.076929234
-0.01124541 0.07509379 0.049087062 -0.081025496 0.025513422 -0.082175575 0.03357173 0.00873412
0.0063536935 0.07897017 0.03457393 0.028269814 -0.014956708 -0.06276277 -0.008186356 0.025004145
0.039101806 0.06562284 -0.06740059 -0.030105053 -0.06310827 -0.04555316 -0.043167554 0.023750968
-0.007913189 0.006943211 0.055586863 -0.039032977 0.031276442 0.038186084 0.011501638 -0.070501715
-0.037830062 -0.06768438 0.011138254 -0.018195722 -0.062617 -0.05730082 -0.019571342 0.056863423
-0.046048813 0.0021036314 0.056702696 -0.034089427 0.013239735 -0.07246562 0.051263694 -0.080023654
0.040866908 0.008208106 -0.059814893 -0.0852414 -8.650752e-05 -0.01578633 -0.07509529 0.08574194
0.032184903 0.05818891 -0.008817457 -0.0043397984 -0.002659985 -0.045993313 -0.0056598647 0.031193394
0.041141864 -0.041728653 0.041512985 0.08309639 -0.070665464 0.04032559 0.045427974 0.030998157
-0.0024742044 -0.053692684 -0.015605262 -0.025802968 0.08552374 0.08118466 -0.047241192 0.038520597
0.06747137 -0.02153026 0.078224406 0.043247174 0.046430476 -0.077481955 0.052379712 -0.014829881
0.039960764 0.036995925 -0.08210852 0.084639154 0.055732336 -0.08186451 0.05745938 0.011199832
0.03513317 -0.057301614 0.06854657 0.01715967 -0.009114987 -0.05772599 -0.034214392 -0.029457208
0.07979037 -0.06653447 -0.023355376 -0.08985638 -0.050531235 -0.037031557 0.051272076 -0.08152398
-0.08575109 -0.07117591 0.07809888 -0.022775456 0.05020601 -0.05245867 -0.0070206146 0.041961987
0.060638238 0.07327289 -0.071732536 0.082764305 0.009422153 0.021863675 0.01798362 0.08535331
0.07830601 -0.087347895 -0.039214373 -0.07617431 -0.00096808927 0.08252044 0.062902495 -0.053663004
0.08198311 0.0065533035 0.07282279 -0.058499794 -0.012460079 -0.019060446 -0.067944184 -0.021689598
0.04222962 0.06516531 0.031888567 0.077573605 0.089374684 0.079960585 0.05182204 0.0014266061
0.0069467467 -0.06670942 -0.04027544 -0.03800297 -0.0067361696 0.07803831 -0.07128426 -0.07351552
0.06412357 -0.065556906 -0.008317584 -0.07924225 0.050411526 0.021712072 0.053950667 0.053527024
