notebooks/lightning_logs/version_5/checkpoints/epoch=0-step=45.ckpt (torch, 401597 bytes, 26 tensors)

model.decoder.ff.freqs f4 [16]
1.0 1.6 2.2 2.8000002 3.4 4.0 4.6000004 5.2000003
5.7999997 6.3999996 7.0 7.6 8.2 8.8 9.4 10.0
00000000: 0000 803f cdcc cc3f cdcc 0c40 3433 3340
00000010: 9a99 5940 0000 8040 3433 9340 6766 a640
00000020: 9999 b940 cccc cc40 0000 e040 3333 f340
00000030: 3333 0341 cdcc 0c41 6666 1641 0000 2041

model.decoder.model.0.weight f4 [128, 42]
0.02733836 -0.096388854 0.05074582 -0.084230274 -0.043270312 0.030087478 0.11474976 0.08422862
0.13330461 -0.14217056 -0.11829735 -0.042699717 -0.10851231 0.03895448 -0.13325126 0.0344648
-0.008584117 -0.103962526 -0.082016155 -0.1428359 -0.046301216 0.09738546 -0.14842933 -0.048643973
-0.1345125 0.015322152 0.104712546 0.08653079 -0.06261594 -0.11816158 -0.09517032 -0.024612077
0.11323579 -0.036079872 0.024216557 0.057652324 0.085182466 0.05259976 0.09342787 0.11774723
-0.07457154 0.010266532 -0.085583314 -0.07994293 0.025307797 0.05258097 0.0356586 -0.09586398
0.11285426 -0.08586578 0.1534223 -0.078341074 -0.03669001 -0.025164466 -0.023483833 -0.09721494
0.108350344 -0.030625675 -0.062007926 -0.13580015 0.01726118 -0.025308859 0.027490338 -0.05997562
-0.069888085 -0.025625467 0.048904285 -0.109555446 0.15280499 -0.122001156 -0.1271879 -0.024028286
0.08596082 0.04311333 0.026816182 0.07001532 0.07554313 0.06824488 -0.050954066 0.06455548
-0.12375352 -0.04060982 0.013818413 0.0027950685 -0.028487418 0.08311883 0.118157126 0.008837061
-0.11767335 0.07090426 0.101853624 -0.09216729 -0.0701743 0.022967866 -0.09601337 -0.12348372
-0.009729843 -0.1410257 0.014931844 -0.06307097 -0.14320098 -0.12444813 -0.13013516 0.112213425
-0.012923115 0.10079423 -0.044084854 -0.030565558 0.10927659 0.003459166 0.03679316 0.14289704
0.08962003 0.12120502 0.085880145 0.03817955 -0.11941441 0.07217469 0.11541199 -0.022019507
0.094314724 0.023461372 -0.095897086 -0.051103488 0.02025937 0.038528543 -0.087904595 0.10849971
0.1491129 -0.088091545 0.14488098 0.09706919 0.016680734 -0.13905682 -0.05297911 0.14326051
-0.14460096 -0.14802738 0.079664946 -0.0029833675 -0.04124259 0.1456442 -0.13259256 0.09553186
-0.15589303 -0.13734566 -0.13748278 0.026461294 -0.059146006 -0.06794843 -0.058066823 -0.020732867
-0.04054469 -0.1514563 0.09365303 -0.06123912 -0.040898915 -0.032709267 0.15192911 0.102907896
-0.055887982 -0.07593124 0.101032406 -0.032621764 0.06149746 -0.11109576 -0.008350919 -0.075945154
0.038866922 0.10525668 0.00196616 0.111233674 -0.0895278 0.036784835 -0.02136535 0.11487946
0.1130609 0.04323181 0.07151113 -0.09506836 -0.12923303 0.10344232 -0.05941689 -0.07820855
0.07312817 0.033632617 -0.036637623 0.0030707975 -0.15173444 -0.092232965 -0.052501198 -0.05749918
0.12755355 -0.13240124 0.039071698 0.0159577 -0.044745572 0.048715323 0.104954496 -0.0034253947
0.117381446 0.022381576 -0.012124852 0.040145475 -0.14769444 0.10585322 -0.03537102 -0.054886818
-0.05987952 0.06398332 -0.05491538 -0.14919856 -0.14141786 -0.040592216 0.13558361 0.11159434
-0.09188466 0.110265635 -0.054867916 -0.045391127 0.122264735 0.12368082 0.091553695 -0.070097804
-0.030824758 -0.10262429 0.07572746 0.051692646 0.09440784 -0.027615804 -0.055734403 -0.12175448
0.02213058 0.054706793 -0.033104893 0.12594278 -0.019293126 0.0072790333 0.053320106 -0.07229447
-0.15133652 0.1362151 -0.13574384 0.041906264 -0.15144286 -0.027556712 0.09187919 -0.124882996
0.06967854 -0.13390598 0.032383833 -0.0020425802 0.010434756 0.13659437 -0.1029601 -0.12166419
00000000: b2f4 df3c 8567 c5bd d9da 4f3d ec80 acbd
00000010: 363c 31bd 047a f63c ec01 eb3d 0e80 ac3d
00000020: 0181 083e 2995 11be e245 f2bd e6e5 2ebd
00000030: b43b debd bc8e 1f3d 0573 08be f62a 0d3d
00000040: 65a4 0cbc 4eea d4bd 16f8 a7bd 9343 12be
00000050: 58a6 3dbd 0772 c73d dcfd 17be e73e 47bd
00000060: a5bd 09be c309 7b3c 8873 d63d 0e37 b13d
00000070: c93c 80bd b3fe f1bd a8e8 c2bd 449f c9bc
00000080: 2ae8 e73d 7dc8 13bd cd61 c63c d824 6c3d
00000090: 2574 ae3d d972 573d 1c57 bf3d 7625 f13d
000000a0: f7b8 98bd f534 283c 4e46 afbd 1eb9 a3bd
000000b0: 4c52 cf3c 255f 573d c10e 123d 5654 c4bd
000000c0: 2220 e73d 66da afbd bc1a 1d3e 4971 a0bd
000000d0: 4448 16bd b625 cebc 2b61 c0bc a018 c7bd
000000e0: c9e6 dd3d b2e2 fabc 06fc 7dbd 320f 0bbe
000000f0: 5167 8d3c 8654 cfbc 6b33 e13c ffa8 75bd
00000100: 7c21 8fbd 80ec d1bc dc4f 483d 9b5e e0bd
00000110: e978 1c3e bedb f9bd 8b3d 02be f8d6 c4bc
00000120: 3a0c b03d 9a97 303d 9cad db3c 3164 8f3d
00000130: 5bb6 9a3d f9c3 8b3d 36b5 50bd aa35 843d
00000140: 7c72 fdbd 7c56 26bd a066 623c 782d 373b
00000150: 725e e9bc 353a aa3d 5dfc f13d 52c9 103c
00000160: bafe f0bd 4136 913d a298 d03d 34c2 bcbd
00000170: 8bb7 8fbd 1b27 bc3c a8a2 c4bd 08e5 fcbd
00000180: eb69 1fbc 0b69 10be b1a4 743c 5a2b 81bd
00000190: 47a3 12be a9de febd 2742 05be 27d0 e53d
000001a0: 79bb 53bc 356d ce3d 5292 34bd 9f64 fabc
000001b0: 68cc df3d 2db3 623b 6db4 163d 9a53 123e
000001c0: b58a b73d 563a f83d eee1 af3d 2962 1c3d
000001d0: 8b8f f4bd 53d0 933d 1f5d ec3d 4162 b4bc
000001e0: 1428 c13d 1032 c03c b165 c4bd e451 51bd
000001f0: faf6 a53c 1bd0 1d3d 5307 b4bd 1935 de3d
00000200: 0db1 183e 5769 b4bd ae5b 143e 36cc c63d
00000210: 09a6 883c e964 0ebe a000 59bd e2b2 123e
00000220: 4612 14be 7d94 17be 6027 a33d 9a84 43bb
00000230: fded 28bd c123 153e 58c6 07be 35a6 c33d
00000240: 6ca2 1fbe 57a4 0cbe 49c8 0cbe 5bc5 d83c
00000250: 1543 72bd 8c28 8bbd 7ad7 6dbd f9d7 a9bc
00000260: 3012 26bd 5c17 1bbe 29cd bf3d dfd5 7abd
00000270: 9f85 27bd 27fa 05bd 4e93 1b3e 60c1 d23d
00000280: ccea 64bd d781 9bbd 14ea ce3d 669e 05bd
00000290: c3e4 7b3d 2c86 e3bd 4bd2 08bc 2289 9bbd
000002a0: ec32 1f3d d090 d73d b1da 003b 7bce e33d
000002b0: 5a5a b7bd b2ab 163d 6306 afbc ec45 eb3d
000002c0: 798c e73d d713 313d 6d74 923d 33b3 c2bd
000002d0: aa55 04be 91d9 d33d 205f 73bd ce2b a0bd
000002e0: 39c4 953d 5bc2 093d 5511 16bd 6f3f 493b
000002f0: 4660 1bbe a3e4 bcbd 7f0b 57bd 4384 6bbd
00000300: 669d 023e 3194 07be a509 203d b9b9 823c
00000310: 2247 37bd b889 473d 62f2 d63d 967c 60bb
00000320: af65 f03d 9159 b73c 51a7 46bc 956f 243d
00000330: 363d 17be 93c9 d83d 34e1 10bd 00d1 60bd
00000340: 3a44 75bd b009 833d f3ee 60bd 82c7 18be
00000350: d8cf 10be 0644 26bd 6ed6 0a3e 938b e43d
00000360: 062e bcbd f3d2 e13d 2ebd 60bd 0cec 39bd
00000370: ef65 fa3d 5f4c fd3d 8180 bb3d 708f 8fbd
00000380: 3484 fcbc af2c d2bd 0017 9b3d abbb 533d
00000390: e658 c13d 8a3a e2bc c249 64bd 6a5a f9bd
000003a0: 314b b53c 3b14 603d ff98 07bd 25f7 003e
000003b0: 9e0c 9ebc f584 ee3b 2f66 5a3d 200f 94bd
000003c0: f6f7 1abe f97b 0b3e 6f00 0bbe e7a5 2b3d
000003d0: d613 1bbe 9dbe e1bc 282b bc3d a8c2 ffbd
000003e0: 9fb3 8e3d a61e 09be e9a4 043d cfdc 05bb
000003f0: 8af6 2a3c 65df 0b3e bfdc d2bd 132b f9bd

model.decoder.model.0.bias f4 [128]
0.06598346 0.06214961 0.13162005 0.049042515 0.013195636 -0.0071034175 -0.0010400045 0.11700629
-0.033907626 -0.10064037 -0.007180901 0.026255338 -0.1281564 -0.024358593 -0.09014978 -0.026593072
-0.026320329 0.019732432 -0.07966537 -0.11962322 -0.06704722 0.080809 -0.023972131 -0.084058285
-0.027667085 -0.0449918 -0.13754375 0.003047291 0.14012204 0.008926366 -0.030749531 0.14767419
0.15888654 -0.03426515 -0.016318595 -0.091080755 -0.07496701 -0.068227045 -0.064191744 -0.10934191
0.103623904 -0.011808705 -0.03418208 0.016215546 0.068051934 -0.020892106 -0.055638053 -0.0860798
-0.013829612 0.15033361 -0.045313645 -0.14232554 -0.11487946 0.03751872 -0.04638314 0.12317829
-0.04694212 0.05518684 -0.09133683 -0.0367206 -5.0060567e-06 0.13520116 0.10513563 0.109569855
0.14179753 -0.068936765 -0.04535935 0.14602764 0.13602923 -0.13658586 -0.045113582 0.033373293
-0.1483273 -0.14503773 0.032238413 -0.116508976 -0.101864055 0.041090526 0.003827103 0.07577056
0.14872773 -0.14021423 -0.03261774 -0.05151475 0.09838151 0.054380514 -0.062329672 0.032371506
-0.09621393 0.13952012 -0.05540318 -0.05380239 0.06506888 -0.111642145 -0.005623995 0.010155834
0.038622566 -0.117989026 0.091208495 0.086945586 -0.059126396 0.13334303 0.06543853 0.10938665
-0.12791632 -0.11109571 0.024184186 -0.15129875 -0.052382797 -0.057656284 -0.086978875 0.14391401
0.05892304 -0.15344441 0.06438228 0.053408474 0.038826536 0.07482042 -0.13888986 0.06125888
-0.038834658 0.13223031 0.07192933 -0.107405476 0.09041444 0.051290497 -0.08060509 0.12696542
00000000: 5622 873d 9790 7e3d 68c7 063e cee0 483d
00000010: 8232 583c c9c3 e8bb c350 88ba fea0 ef3d
00000020: b9e2 0abd 8a1c cebd c34d ebbb 6f15 d73c
00000030: 6e3b 03be ac8b c7bc 73a0 b8bd b7d9 d9bc
00000040: bb9d d7bc e9a5 a13c 9927 a3bd 05fd f4bd
00000050: 0e50 89bd 307f a53d 3461 c4bc c026 acbd
00000060: 15a6 e2bc 5249 38bd 45d8 0cbe 0fb5 473b
00000070: 277c 0f3e e53f 123c 71e6 fbbc e737 173e
00000080: 27b3 223e 9d59 0cbd 93ae 85bc 8c88 babd
00000090: 4e88 99bd 9fba 8bbd f676 83bd a7ee dfbd
000000a0: c538 d43d 4c79 41bc 8202 0cbd 77d6 843c
000000b0: d05e 8b3d ec25 abbc bae4 63bd 9b4a b0bd
000000c0: 9995 62bc 0ef1 193e cd9a 39bd c9bd 11be
000000d0: ec45 ebbd 3bad 193d 3ffc 3dbd e644 fc3d
000000e0: 6146 40bd 990b 623d ce0e bbbd 5768 16bd
000000f0: b3f9 a7b6 2c72 0a3e 5951 d73d 2966 e03d
00000100: 5f33 113e b82e 8dbd baca 39bd 4588 153e
00000110: 3f4b 0b3e 2add 0bbe 05c9 38bd 6fb2 083d
00000120: 1de3 17be c584 14be 6d0c 043d 429c eebd
00000130: 1a9e d0bd 8a4e 283d 22d0 7a3b 982d 9b3d
00000140: 154c 183e 5294 0fbe 2e9a 05bd 2101 53bd
00000150: 3f7c c93d 1abe 5e3d 664d 7fbd fc97 043d
00000160: cf0b c5bd 5dde 0e3e 72ee 62bd e55f 5cbd
00000170: d542 853d a3a4 e4bd 7d49 b8bb a864 263c
00000180: b232 1e3d 3ba4 f1bd 85cb ba3d 8710 b23d
00000190: 852e 72bd 138b 083e a304 863d 1c06 e03d
000001a0: 7ffc 02be 2686 e3bd ea1d c63c 0fee 1abe
000001b0: 588f 56bd ff28 6cbd fb21 b2bd 325e 133e
000001c0: 4959 713d 8820 1dbe dbda 833d d8c2 5a3d
000001d0: 9308 1f3d 733b 993d 2539 0ebe 97ea 7a3d
000001e0: 1711 1fbd 6267 073e af4f 933d 67f7 dbbd
000001f0: 352b b93d fc15 523d 4814 a5bd 3903 023e

model.decoder.model.2.weight f4 [128, 128]
-0.013929826 -0.06910092 -0.066210225 -0.033211567 -0.07830348 -0.040585794 0.044381447 0.08343221
0.03264163 0.0037873778 0.026458822 0.07912639 -0.0063961274 -0.020118132 0.058739427 0.0456578
-0.06314356 -0.0902896 -0.0481169 0.007605724 -0.04945297 0.005147603 -0.03621982 -0.080636084
0.021876642 -0.085279286 -0.0035839453 -0.0020131937 -0.035784844 -0.032720547 0.02415654 0.013016156
0.06742234 0.054180294 0.08732918 0.07673507 0.0027204866 -0.0014832673 -0.040162954 -0.0404759
-0.013846917 0.030643715 0.057768293 0.08127277 0.001567673 0.08571359 -0.08253577 -0.049973983
0.0123210875 -0.053160843 0.011783273 0.03780067 -0.010241459 0.08591451 0.040172227 0.056729253
-0.057677083 0.07638142 -0.060648095 0.05918922 0.009939969 -0.059015542 0.0558723 -0.07674312
0.019785814 -0.00026803438 0.082017794 0.015993033 0.011578549 -0.046662614 0.075516395 -0.029075649
-0.0018214873 -0.06148913 -0.07041473 0.07655236 -0.04436927 0.00029126473 0.06554848 -0.053090367
0.021973692 -0.07162619 0.0382815 -0.047530126 0.03680399 0.06163981 0.030783763 0.039854992
0.05105293 -0.034171857 0.063007385 -0.05173385 -0.0582582 0.05139409 0.004701607 0.0028776668
0.0017672227 -0.058909368 -0.018032918 0.051330056 0.023004496 0.0782514 0.01612284 -0.07037254
0.009201786 0.062015574 -0.07215548 -0.032161184 0.03940996 0.0044311187 0.07621544 -0.041827694
0.08367741 0.046316817 -0.058557473 -0.05151572 -0.0077381567 -0.013248986 0.05710099 0.07759108
-0.04684815 -0.021470059 -0.02028623 -0.004571627 -0.074538335 -0.01284807 0.003412354 -0.06794217
0.017482221 -0.06315 0.04845623 -0.008151701 -0.016559344 0.03376561 -0.06471045 -0.06602533
0.08132212 -0.014486616 0.009301351 -0.037586123 0.06842796 0.08958608 -0.08882994 -0.01548029
-0.00046608757 -0.004036001 -0.036637437 -0.04591353 -0.0056727775 0.062233243 0.027274255 0.06382969
0.018793628 0.053465087 0.034376293 0.010589164 0.05898099 0.0034858983 -0.086444 0.04358981
0.053809162 -0.0127356965 0.030791324 -0.014083792 0.05223282 0.06957381 0.07464292 -0.07851487
-0.052960433 0.048999596 0.022296777 -0.055278312 0.041939635 0.06101674 0.04294133 -0.062339757
-0.03434374 -0.027659014 -0.061000675 -0.062262 -0.009376342 0.067510776 0.017422443 0.008127184
0.012060456 -0.04895186 0.047214556 0.032034874 0.022887234 -0.056143157 -0.057027474 0.009161255
-0.08030169 -0.0704291 0.055738837 0.008378869 -0.04888222 -0.057465732 0.019075887 0.019009827
-0.030514231 0.04258351 0.051835015 -0.021125747 0.029658945 0.018037824 -0.040206995 -0.0116551705
-0.04805656 -0.07045224 -0.0779278 -0.08297873 0.008998954 -0.049077347 -0.031358805 0.027598148
0.019382577 0.0750285 0.07829084 -0.034303945 0.07466795 -0.052805904 0.0754571 -0.02431242
0.06618727 0.08443035 -0.047361854 -0.020861346 -0.00055313547 -0.055254612 -0.024452666 0.05916668
-0.060003396 -0.031072706 -0.015352576 -0.08662876 0.010352944 0.048594784 0.0009947211 -0.078240104
-0.08589296 -0.023810474 -0.08155219 0.090017356 0.06211808 0.08359961 0.044745207 -0.0670408
-0.052386414 0.02754548 0.047677223 0.07413698 -0.048078794 0.07439991 0.07081639 -0.059882637
00000000: ed39 64bc c884 8dbd 3a99 87bd da08 08bd
00000010: 935d a0bd 4a3d 26bd 52c9 353d 82de aa3d
00000020: 3bb3 053d a835 783b 2cc0 d83c 040d a23d
00000030: 9b96 d1bb c8ce a4bc c198 703d ac03 3b3d
00000040: 6951 81bd c1e9 b8bd 3a16 45bd 7039 f93b
00000050: 338f 4abd 39ad a83b 3c5b 14bd 8824 a5bd
00000060: a536 b33c e8a6 aebd a0e0 6abb c9ef 03bb
00000070: 2193 12bd fb05 06bd f0e3 c53c b741 553c
00000080: b914 8a3d 28ec 5d3d a4d9 b23d 4727 9d3d
00000090: 314a 323b 316a c2ba e981 24bd 0fca 25bd
000000a0: 2ede 62bc 8708 fb3c 729e 6c3d 5772 a63d
000000b0: 617a cd3a 9b8a af3d 8408 a9bd 85b1 4cbd
000000c0: 63de 493c 2fbf 59bd a10e 413c e0d4 1a3d
000000d0: cbcb 27bc f2f3 af3d a28b 243d ef5c 683d
000000e0: ce3e 6cbd dd6d 9c3d 236a 78bd 6570 723d
000000f0: 40db 223c 48ba 71bd 5ada 643d 7f2b 9dbd
00000100: dc15 a23c f786 8cb9 f2f8 a73d d203 833c
00000110: f4b3 3d3c 4c21 3fbd 57a8 9a3d 0e30 eebc
00000120: f9be eeba 07dc 7bbd 9935 90bd 7cc7 9c3d
00000130: 8dbc 35bd e4b4 9839 483e 863d 4975 59bd
00000140: 2c02 b43c c0b0 92bd 10cd 1c3d f3ae 42bd
00000150: c8bf 163d 077a 7c3d 3b2e fc3c fd3e 233d
00000160: e11c 513d caf7 0bbd 040a 813d e0e6 53bd
00000170: 26a0 6ebd 9c82 523d f00f 9a3b 3d97 3c3b
00000180: 27a2 e73a f34a 71bd c5b9 93bc 773f 523d
00000190: ed73 bc3c 4542 a03d 0c14 843c 7a1f 90bd
000001a0: 16c3 163c 0b04 7e3d 41c6 93bd 72bb 03bd
000001b0: 576c 213d eb32 913b d716 9c3d 8453 2bbd
000001c0: 105f ab3d b4b6 3d3d f6d9 6fbd 2602 53bd
000001d0: 5d90 fdbb 4612 59bc bae2 693d 12e8 9e3d
000001e0: d9e3 3fbd fae1 afbc 4f2f a6bc 96cd 95bb
000001f0: 8ea7 98bd b680 52bc cda1 5f3b 4425 8bbd
00000200: e036 8f3c ca54 81bd 0a7a 463d b68e 05bc
00000210: 76a7 87bc cf4d 0a3d ea86 84bd 4a38 87bd
00000220: 368c a63d 4559 6dbc b264 183c e8f3 19bd
00000230: f523 8c3d e878 b73d 79ec b5bd 0ba1 7dbc
00000240: 375d f4b9 6e40 84bb 2311 16bd d30f 3cbd
00000250: b5e2 b9bb 49e8 7e3d 426e df3c 24b9 823d
00000260: 18f5 993c 35fe 5a3d 28ce 0c3d 2c7e 2d3c
00000270: 0d96 713d ab73 643b 8d09 b1bd 3b8b 323d
00000280: ff66 5c3d 62a9 50bc 163e fc3c b5bf 66bc
00000290: 15f2 553d b77c 8e3d 63de 983d 67cc a0bd
000002a0: 0aed 58bd cdb3 483d bba7 b63c 836b 62bd
000002b0: e5c8 2b3d b0ec 793d 3fe3 2f3d f957 7fbd
000002c0: 06ac 0cbd 2895 e2bc d8db 79bd 7006 7fbd
000002d0: 3b9f 19bc 1743 8a3d 83b9 8e3c e127 053c
000002e0: 3899 453c bf81 48bd 0d64 413d 0037 033d
000002f0: 027e bb3c 5ef6 65bd a495 69bd 1719 163c
00000300: 3675 a4bd 223d 90bd 684e 643d 8647 093c
00000310: b938 48bd 3061 6bbd 0945 9c3c 7fba 9b3c
00000320: fbf8 f9bc 0c6c 2e3d f450 543d e70f adbc
00000330: 51f7 f23c 0fc4 933c 17b0 24bd 54f5 3ebc
00000340: f5d6 44bd 4449 90bd 9c98 9fbd c1f0 a9bd
00000350: 5970 133c 5405 49bd 1772 00bd 8315 e23c
00000360: 36c8 9e3c 8ba8 993d f356 a03d 4b82 0cbd
00000370: 83eb 983d 014b 58bd 4189 9a3d d72a c7bc
00000380: 318d 873d d2e9 ac3d 81fe 41bd 6ae5 aabc
00000390: 4b00 11ba a952 62bd f550 c8bc c358 723d
000003a0: 1fc6 75bd 308c febc 5f89 7bbc 6b6a b1bd
000003b0: 659f 293c 530b 473d 4d61 823a 593c a0bd
000003c0: a6e8 afbd 2f0e c3bc d604 a7bd 055b b83d
000003d0: 876f 7e3d 4636 ab3d c046 373d b04c 89bd
000003e0: 2393 56bd 0fa7 e13c 3149 433d 21d5 973d
000003f0: 45ee 44bd fb5e 983d 2f08 913d 7f47 75bd

model.decoder.model.2.bias f4 [128]
-0.046286453 -0.00038239564 0.023657035 0.051329084 0.03542382 -0.070241645 -0.067605585 -0.047562465
0.07475065 0.04809384 -0.0708376 -0.08678391 -0.027818037 0.08513672 0.010561936 0.089923866
0.04932609 0.045010425 0.07435265 0.024119725 -0.025486246 -0.052384585 -0.021884693 -0.06893717
0.033536263 -0.07141742 0.017247766 -0.0077947364 0.013807715 -0.016631417 0.085105956 0.020498166
0.057503324 -0.037155494 -0.06720657 0.024525467 -0.059808344 0.047455046 -0.049623568 -0.040743176
0.05813582 -0.006486053 -0.021008365 -0.025299974 0.03196335 -0.082566455 0.055192288 0.007451804
0.0024389874 -0.012676881 -0.001603703 -0.07191785 -0.023017578 0.020237643 0.055950787 -0.0021002186
-0.0819094 0.0051897094 0.03833364 -0.08421083 -0.0051508173 0.03835442 -0.042518456 0.072315164
0.0011793056 -0.060983162 0.07773669 -0.01980771 0.0129337255 -0.013769916 -0.02055036 -0.019510094
-0.08229976 -0.003024552 0.040437877 -0.003428037 -0.042765662 -0.03214942 0.033592954 -0.086965896
-0.065760136 0.033529136 -0.009351482 -0.009035392 -0.020382602 -0.030677479 0.028351646 0.0474031
-0.05248014 0.057529528 0.041912246 0.063709885 -0.03226782 -0.07669095 -0.064819545 0.06323111
0.042618226 0.040228896 -0.07567896 0.005394948 0.013268979 0.089398585 0.065577805 0.07128066
-0.027069522 0.028851423 0.0009654061 0.081627086 -0.05142221 -0.014420684 0.010020308 0.077536635
0.025899807 -0.0810593 0.048165858 -0.069639556 0.037535526 -0.040660486 0.049112782 -0.021822983
0.047892343 0.08139248 -0.04630034 0.031910192 -0.025189463 0.000568511 -0.06070585 -0.075976156
00000000: dd96 3dbd 467c c8b9 66cc c13c 723e 523d
00000010: 9118 113d dada 8fbd cc74 8abd dcd0 42bd
00000020: de16 993d 0cfe 443d 4e13 91bd c3bb b1bd
00000030: a7e2 e3bc 295c ae3d f80b 2d3c 012a b83d
00000040: 270a 4a3d da5c 383d 3446 983d bb96 c53c
00000050: 88c8 d0bc 3891 56bd 8747 b3bc ee2e 8dbd
00000060: 525d 093d 4c43 92bd 304b 8d3c fd6a ffbb
00000070: c139 623c 9c3e 88bc 084c ae3d c5eb a73c
00000080: 9b88 6b3d 5c30 18bd 99a3 89bd a2e9 c83c
00000090: 98f9 74bd 3960 423d 1542 4bbd 51e2 26bd
000000a0: d31f 6e3d f588 d4bb bc19 acbc e441 cfbc
000000b0: 00ec 023d 9a18 a9bd 4f11 623d 432e f43b
000000c0: 6bd7 1f3b b1b2 4fbc 5833 d2ba aa49 93bd
000000d0: 5c8f bcbc 6ac9 a53c a72c 653d d2a3 09bb
000000e0: 1ec0 a7bd 700e aa3b bc03 1d3d ba76 acbd
000000f0: 30c8 a8bb 8619 1d3d d527 2ebd f919 943d
00000100: ee92 9a3a 7bc9 79bd 6a34 9f3d c743 a2bc
00000110: fae7 533c 379b 61bc 3b59 a8bc a2d3 9fbc
00000120: c78c a8bd 9037 46bb 30a2 253d eba8 60bb
00000130: 0c2b 2fbd 1caf 03bd c498 093d 2d1b b2bd
00000140: 40ad 86bd d955 093d f536 19bc 2e09 14bc
00000150: 6af9 a6bc 564f fbbc b641 e83c c129 423d
00000160: 6af5 56bd 15a4 6b3d 2dac 2b3d 547a 823d
00000170: 432b 04bd 2510 9dbd 1cc0 84bd 507f 813d
00000180: 7390 2e3d 0ec7 243d 92fd 9abd 1bc8 b03b
00000190: 2266 593c 9b16 b73d a84d 863d 98fb 913d
000001a0: e7c0 ddbc d259 ec3c 4f13 7d3a 1a2c a73d
000001b0: 18a0 52bd bc44 6cbc 382c 243c 87cb 9e3d
000001c0: d52b d43c 6b02 a6bd 9049 453d 2f9f 8ebd
000001d0: dabe 193d 9c8b 26bd 7c2a 493d 1dc6 b2bc
000001e0: c32a 443d 1ab1 a63d 6da5 3dbd 43b4 023d
000001f0: 225a cebc 2108 153a b3a6 78bd 6399 9bbd

model.decoder.model.4.weight f4 [128, 128]
-0.04158485 -0.00055192644 0.057584602 0.024705362 -0.059610814 -0.056482676 -0.0608332 -0.018703233
0.06409696 -0.025854744 -0.050274532 0.077812426 0.051997986 -0.010648555 -0.025108865 -0.031425778
0.010429868 -0.016055934 0.015495115 0.004023041 0.020317273 -0.06724616 -0.032433253 -0.08910238
-0.029260809 -0.005346996 -0.07185365 0.046723075 -0.06590662 0.05020804 -0.02480883 0.07410582
0.07573136 0.08536599 0.01873041 0.08161697 0.045756377 -0.009421338 0.011595886 -0.04527374
0.05079634 0.08115804 0.06730117 -0.05730936 -0.07999242 -0.02053244 0.018611608 -0.033008188
0.065614104 -0.05899537 -0.047321957 0.06416957 -0.085491054 -0.08020772 0.02075906 0.015278909
-0.086440176 0.085848086 -0.04822834 -0.06569107 -0.013579209 -0.024044184 -0.07177109 -0.08076335
-0.059496842 -0.04689869 -0.007892756 0.07598191 0.035241254 -0.009517358 0.0065815356 0.04900645
-0.07051782 0.023946399 0.06848323 0.0025671558 0.04417307 -0.057704516 -0.031326123 0.0351319
0.02970261 -0.015768941 -0.041685402 0.038047243 -0.00018560459 -0.06481763 -0.012225228 -0.04845775
-0.022853704 -0.026863815 0.043533236 0.043691386 0.08119523 0.06361752 -0.007746827 0.020901484
-0.05384329 0.07697074 -0.05604091 0.06888881 0.005720687 0.062861525 0.029490862 -0.030478904
-0.08058838 0.045810122 -0.035121024 -0.03680246 0.022520497 -0.008946723 0.018376904 0.005176927
0.016657017 -0.054565348 -0.06633878 0.03460247 -0.014319377 0.05231878 0.039876927 -0.009895886
-0.015890494 0.06023845 -0.028932998 0.004140944 -0.005421568 -0.038332473 0.024731178 -0.07458794
-0.08978397 -0.05378936 0.005293487 0.008447345 -0.037430115 -0.050842803 0.07020403 0.040522926
0.02166455 -0.027814806 0.034771368 0.06887264 0.020675834 0.05667805 0.075044125 -0.015745336
-0.029538343 0.063513815 0.015522689 0.055586148 -0.020906873 0.026817365 -0.08120148 -0.07390472
0.0788585 0.051274505 -0.024066407 -0.057972822 0.06424009 -0.020824183 0.08182368 0.07966843
0.062546946 0.0005867415 0.011260457 -0.022562832 -0.056364566 0.0033995642 -0.07928574 -0.028027467
0.05536849 -0.02556693 -0.030409794 0.02493023 0.046632282 0.05221483 -0.045837883 0.09008484
0.0021952228 -0.033324473 0.059770603 -0.013881317 0.051849537 0.011082279 -0.05780298 0.08514435
0.010993804 0.05053676 0.06139071 -0.011697598 -0.0012006746 0.020202234 -0.053655747 0.05257989
0.06935941 0.006796817 0.07359803 0.010251642 -0.087805726 0.0021490299 -0.033808526 -0.036922377
0.02093447 -0.023473918 0.07890854 0.083513305 0.008451102 -0.06573947 -0.08265973 -0.013515671
-0.0807457 0.001461733 0.0410024 -0.08030281 0.03425472 0.015685203 0.08016881 -0.07051343
-0.06634049 0.076532595 -0.053199213 -0.03833706 -0.06548437 0.017399043 -0.01876633 -0.06941921
-0.011033472 -0.042703234 0.00576371 0.080543615 0.08011675 -0.06108398 0.03197498 0.04986515
-0.0489365 -0.044519775 0.029545067 -0.033217963 0.016585952 0.030489175 -0.066384174 -0.0643695
0.025157258 -0.038854305 -0.009903914 0.0022268994 -0.030581558 -0.06118273 0.06475957 -0.03752632
0.03246017 -0.07133587 -0.009560567 0.03366772 0.0756864 -0.047234375 0.0017816998 -0.024071004
00000000: e054 2abd 28af 10ba d5dd 6b3d e662 ca3c
00000010: 782a 74bd 615a 67bd 3c2c 79bd 8637 99bc
00000020: 4445 833d 54cd d3bc abec 4dbd 1f5c 9f3d
00000030: d7fb 543d 4777 2ebc 1bb1 cdbc 51b8 00bd
00000040: 09e2 2a3c bc87 83bc 39df 7d3c b7d3 833b
00000050: 6970 a63c 5bb8 89bd bbd8 04bd 4f7b b6bd
00000060: 5db4 efbc da35 afbb 0228 93bd b260 3f3d
00000070: 0dfa 86bd f2a6 4d3d e33b cbbc cbc4 973d
00000080: 0b19 9b3d 5dd4 ae3d 8470 993c cc26 a73d
00000090: 0a6b 3b3d f55b 1abc acfc 3d3c f570 39bd
000000a0: d30f 503d 3036 a63d 32d5 893d 38bd 6abd
000000b0: 11d3 a3bd a633 a8bc 5f77 983c 9833 07bd
000000c0: b060 863d 21a5 71bd abd4 41bd 566b 833d
000000d0: ef15 afbd f243 a4bd e70e aa3c 6454 7a3c
000000e0: 8c07 b1bd 1fd1 af3d 148b 45bd 0a89 86bd
000000f0: 557b 5ebc 4ff8 c4bc b9fc 92bd 4167 a5bd
00000100: f6b2 73bd d718 40bd 9e50 01bc 679c 9b3d
00000110: 2259 103d b1ee 1bbc eca9 d73b fdba 483d
00000120: a66b 90bd 3d2b c43c f040 8c3d ba3d 283b
00000130: d2ee 343d 925b 6cbd d24f 00bd 78e6 0f3d
00000140: e352 f33c de2d 81bc 50be 2abd 6dd7 1b3d
00000150: da9e 42b9 1bbf 84bd 534c 48bc a27b 46bd
00000160: b137 bbbc 8111 dcbc e84f 323d bdf5 323d
00000170: af49 a63d e749 823d 18d9 fdbb 9739 ab3c
00000180: c88a 5cbd d6a2 9d3d 278b 65bd 9415 8d3d
00000190: 9a74 bb3b 8bbd 803d d296 f13c e5ae f9bc
000001a0: 850b a5bd 65a3 3b3d 10db 0fbd 2dbe 16bd
000001b0: e87c b83c 4795 12bc 298b 963c 36a3 a93b
000001c0: 4c74 883c ea7f 5fbd a0dc 87bd 52bb 0d3d
000001d0: d29b 6abc 384c 563d fd55 233d 5b22 22bc
000001e0: c82c 82bc 98bc 763d e504 edbc c2b0 873b
000001f0: 69a7 b1bb 8302 1dbd 0a99 ca3c 90c1 98bd
00000200: a8e0 b7bd 3b52 5cbd fd74 ad3b bc66 0a3c
00000210: 5250 19bd 8b40 50bd 21c7 8f3d 5efb 253d
00000220: db79 b13c e0db e3bc 6c6c 0e3d 190d 8d3d
00000230: 5e60 a93c 3e27 683d bcb0 993d 5dfc 80bc
00000240: 65fa f1bc 8813 823d e052 7e3c 4dae 633d
00000250: e444 abbc 17b0 db3c f64c a6bd 5c5b 97bd
00000260: 9180 a13d 3705 523d ea26 c5bc e974 6dbd
00000270: 4f90 833d 7a97 aabc 2c93 a73d 3429 a33d
00000280: 9d18 803d 8ecf 193a c87d 383c b0d5 b8bc
00000290: 88de 66bd 39cb 5e3b 9060 a2bd dc99 e5bc
000002a0: 12ca 623d bd71 d1bc f61d f9bc 7b3a cc3c
000002b0: 7e01 3f3d 38df 553d 81c0 3bbd 677e b83d
000002c0: badd 0f3b 3e7f 08bd 05d2 743d 776e 63bc
000002d0: 2e60 543d 7292 353c d1c2 6cbd 2960 ae3d
000002e0: 5b1f 343c a2ff 4e3d d374 7b3d 48a7 3fbc
000002f0: f45f 9dba 287f a53c 21c6 5bbd 035e 573d
00000300: 4e0c 8e3d d5b7 de3b 90ba 963d 81f6 273c
00000310: 7dd3 b3bd bdd6 0c3b cf7a 0abd eb3b 17bd
00000320: c47e ab3c 604c c0bc cd9a a13d 0609 ab3d
00000330: 7e76 0a3c 6aa2 86bd 8149 a9bd d570 5dbc
00000340: 005e a5bd 9f97 bf3a 22f2 273d cd75 a4bd
00000350: ad4e 0c3d 417e 803c 8c2f a43d 5869 90bd
00000360: 86dd 87bd 1fbd 9c3d 6be7 59bd 5207 1dbd
00000370: ab1c 86bd 7088 8e3c d9bb 99bc a92b 8ebd
00000380: bcc5 34bc 96e9 2ebd 81dd bc3b 0df4 a43d
00000390: 4014 a43d 3233 7abd 32f8 023d 663f 4c3d
000003a0: a471 48bd 5e5a 36bd 7f08 f23c 8f0f 08bd
000003b0: 43df 873c 6fc4 f93c 6df4 87bd 28d4 83bd
000003c0: 9816 ce3c b125 1fbd 0744 22bc 2cf1 113b
000003d0: 2d86 fabc be9a 7abd aaa0 843d 33b5 19bd
000003e0: f5f4 043d 8a18 92bd eda3 1cbc 2ae7 093d
000003f0: 7901 9b3d d578 41bd ed87 e93a 8e30 c5bc

model.decoder.model.4.bias f4 [128]
0.06949546 -0.06547656 -0.06617418 0.046930753 -0.0031897866 0.07015927 0.0027192507 0.04611528
0.07395948 -0.019362196 -0.04618937 -0.04956801 0.029791981 -0.05529045 0.059445392 0.08477968
0.044000585 -0.03847206 0.006125365 0.0057344055 0.0882689 0.05020088 0.011223665 0.02996669
0.07144415 -0.032197863 -0.07634523 -0.06476653 0.023881545 -0.060856998 -0.0575943 0.042176947
-0.090012215 -0.029524246 -0.041659925 -0.07894968 0.035758033 0.03471007 0.01078083 -0.03401369
0.0058976375 0.02444311 -0.0734642 -0.05612802 -0.040244874 -0.081825174 0.07263596 -0.0838515
-0.015756117 -0.050693933 -0.083193325 0.025231384 -0.08560131 -0.083919495 0.016474102 0.07712245
0.035536125 -0.059829216 -0.03001403 -0.061215788 0.006420735 -0.016078213 0.029444423 0.06834168
0.010942032 -0.031926077 -0.00824107 -0.047836576 -0.07699608 0.025582694 -0.052684188 -0.070083536
0.03339309 -0.008849035 -0.0854088 -0.03633505 -0.06345887 -0.037231173 -0.0015162295 0.019017972
0.0676079 -0.029706974 0.021989126 -0.026296932 -0.017191593 0.0751555 -0.033259433 0.025881259
0.004627774 0.009760871 0.08404456 0.07687584 0.04829104 0.002911052 0.052374516 0.07171545
0.014494815 0.015716968 0.027441628 -0.08200059 0.08300632 0.065402456 0.045637302 0.064228795
0.03543996 0.00954449 -0.011145221 -0.06420469 0.08978506 0.07298943 0.0644681 -0.057318844
0.020753313 0.06689645 0.04085227 0.024692636 0.083843015 0.038497694 -0.017141022 -0.022125833
0.030018775 0.077864796 0.032929562 0.05338935 0.036473777 -0.022242501 0.075419724 0.054164115
00000000: a353 8e3d 9318 86bd 5486 87bd 763a 403d
00000010: bd0b 51bb aaaf 8f3d 7535 323b 60e3 3c3d
00000020: 1178 973d 789d 9ebc 1131 3dbd d307 4bbd
00000030: 500e f43c 3d78 62bd 037d 733d f8a0 ad3d
00000040: f539 343d e194 1dbd 49b7 c83b aee7 bb3b
00000050: 53c6 b43d 709f 4d3d 77e3 373c b47c f53c
00000060: 4f51 923d e8e1 03bd e35a 9cbd 51a4 84bd
00000070: 3ba3 c33c 3045 79bd 00e8 6bbd bcc1 2c3d
00000080: 5358 b8bd d5dc f1bc 99a3 2abd 5fb0 a1bd
00000090: 0477 123d 252c 0e3d 14a2 303c f051 0bbd
000000a0: f840 c13b eb3c c83c 6674 96bd 7fe6 65bd
000000b0: cfd7 24bd f593 a7bd 2ac2 943d 56ba abbd
000000c0: f912 81bc 71a4 4fbd 4361 aabd 0cb2 ce3c
000000d0: bd4f afbd fcdd abbd b2f4 863c 60f2 9d3d
000000e0: 548e 113d 7b0f 75bd fcdf f5bc 68bd 7abd
000000f0: 0765 d23b 75b6 83bc 6e35 f13c b9f6 8b3d
00000100: 3546 333c ebc4 02bd 8e05 07bc 49f0 43bd
00000110: 1fb0 9dbd cc92 d13c 60cb 57bd f587 8fbd
00000120: 31c7 083d 8bfb 10bc cfea aebd 10d4 14bd
00000130: b9f6 81bd b77f 18bd 38bc c6ba 94cb 9b3c
00000140: 0376 8a3d 0a5c f3bc 8a22 b43c aa6c d7bc
00000150: 62d5 8cbc 20eb 993d 0b3b 08bd ef04 d43c
00000160: 95a4 973b 0fec 1f3c 8e1f ac3d 1571 9d3d
00000170: d3cc 453d 59c7 3e3b a986 563d 8ddf 923d
00000180: a97b 6d3c dfc0 803c 44cd e03c edef a7bd
00000190: 38ff a93d b9f1 853d 2eee 3a3d 638a 833d
000001a0: 7e29 113d 7e60 1c3c 729a 36bc c07d 83bd
000001b0: 3be1 b73d 7b7b 953d da07 843d 2ac7 6abd
000001c0: da02 aa3c 0201 893d b654 273d 3648 ca3c
000001d0: e3b5 ab3d c2af 1d3d 546b 8cbc 3c41 b5bc
000001e0: efe9 f53c 9477 9f3d 26e1 063d cbae 5a3d
000001f0: 8765 153d e835 b6bc a875 9a3d 31db 5d3d

model.decoder.model.6.weight f4 [1, 128]
-0.015519229 -0.035497773 0.06632401 -0.07025068 -0.0074563753 0.06951219 -0.06979841 0.026886344
-0.05681328 0.039196607 0.0063876812 -0.06030387 0.010852513 -0.020009512 0.03635557 0.034920033
0.07417019 -0.039809696 0.025031734 -0.051195312 -0.03753965 -0.027803803 0.044605598 0.028373903
-0.056975212 -0.06997392 -0.0053507127 -0.012560176 0.0570212 -0.024528028 -0.07330903 -0.017947266
0.034105808 0.06936335 0.047207255 0.044405513 0.07240278 -0.068925604 0.012775843 -0.0749858
0.03586206 0.043362074 -0.0067343134 -0.019978605 0.07163431 0.070298366 0.0045437953 -0.04815327
-0.023080112 0.0122669665 0.08479293 0.01912917 -0.035989817 0.04870189 0.04445667 -0.0017301905
-0.07940018 -0.0062774383 0.06287585 0.07189008 0.010413016 0.0540248 -0.077969685 0.060193513
0.06401792 0.027602462 0.03943523 -0.050995894 0.02155968 -0.079954125 -0.056981098 -0.021559322
0.0275448 0.03367036 -0.01700072 0.08154102 0.07694642 0.067553766 0.059559397 -0.026765497
-0.026707709 -0.036955733 0.056061942 0.061029427 0.005270589 -0.019027552 -0.017976977 -0.04467947
-0.06629458 0.07676878 -0.022756875 -0.03430412 -0.04213615 0.006313933 0.041349012 0.081035264
0.024551308 -0.06557987 -0.0014620842 0.052550334 -0.011022919 0.026049914 0.0530002 -0.029000685
-0.00799705 0.01585887 -0.05738891 0.04087207 -0.08864356 0.055901192 0.059365258 -0.012277692
-0.0026480271 0.0039904807 0.049293302 0.083139 -0.07271713 0.045696706 0.040335417 -0.06844825
-0.042544954 0.026569124 -0.07202581 -0.05686189 -0.018262852 0.05689541 0.05795919 -0.0033881334
00000000: 5d44 7ebc 1d66 11bd e2d4 873d 97df 8fbd
00000010: 9c54 f4bb 685c 8e3d 78f2 8ebd c040 dc3c
00000020: 0bb5 68bd 9f8c 203d c14f d13b 3101 77bd
00000030: bdce 313c fdea a3bc 94e9 143d 4f08 0f3d
00000040: 8ae6 973d 7e0f 23bd 5a0f cd3c 2db2 51bd
00000050: 2dc3 19bd cdc4 e3bc 5cb4 363d 6370 e83c
00000060: d75e 69bd 7d4e 8fbd 0855 afbb 32c9 4dbc
00000070: 108f 693d 01ef c8bc 0b23 96bd 2506 93bc
00000080: 88b2 0b3d 5f0e 8e3d 655c 413d 8ee2 353d
00000090: e947 943d de28 8dbd c551 513c 2892 99bd
000000a0: 18e4 123d 6e9c 313d 84ab dcbb 2caa a3bc
000000b0: 02b5 923d 97f8 8f3d 1ee4 943b 5d3c 45bd
000000c0: 8112 bdbc 63fb 483c eaa7 ad3d c7b4 9c3c
000000d0: 0f6a 13bd a27b 473d 3218 363d 8fc7 e2ba
000000e0: 909c a2bd f8b2 cdbb 0ec5 803d 1b3b 933d
000000f0: 5b9b 2a3c 1c49 5d3d 92ae 9fbd 798d 763d
00000100: d41b 833d 8f1e e23c d686 213d 12e1 50bd
00000110: ed9d b03c fdbe a3bd 0365 69bd 2d9d b0bc
00000120: a2a5 e13c eee9 093d 1845 8bbc fafe a63d
00000130: 1696 9d3d a159 8a3d 8ef4 733d 5143 dbbc
00000140: 20ca dabc e55e 17bd 35a1 653d fef9 793d
00000150: e8b4 ac3b abdf 9bbc 7444 93bc d201 37bd
00000160: 74c5 87bd f338 9d3d a06c babc 7a82 0cbd
00000170: f596 2cbd 1ce5 ce3b 955d 293d d1f5 a53d
00000180: d31f c93c bd4e 86bd 68a3 bfba 053f 573d
00000190: 7999 34bc a166 d53c bd16 593d d892 edbc
000001a0: 0f06 03bc 76ea 813c a210 6bbd 7969 273d
000001b0: c18a b5bd a6f8 643d fc28 733d 5f28 49bc
000001c0: 868a 2dbb 94c2 823b c6e7 493d c844 aa3d
000001d0: b8ec 94bd 782c 3b3d c036 253d 992e 8cbd
000001e0: 9e43 2ebd 7ea7 d93c 4582 93bd 03e8 68bd
000001f0: fa9b 95bc 290b 693d 9e66 6d3d 720b 5ebb

model.pnode.func.model.0.weight f4 [128, 12]
0.0103892265 0.26349458 0.1899676 -0.07613086 -0.27512497 0.03467953 -0.27583382 -0.07429491
0.24962683 0.11009569 0.22138432 -0.17431955 0.20828135 -0.22683072 0.1968456 -0.22563063
-0.06330199 0.26839727 -0.19403414 0.254157 -0.21031792 0.07639739 -0.044178847 0.2258414
0.06408648 -0.10922826 0.07043685 0.21520837 0.17376375 -0.19870754 -0.17203595 0.20835106
-0.07113022 0.20760854 0.06812472 0.061132006 -0.09201612 -0.14850833 0.24368732 0.25034866
-0.1623758 -0.1074205 0.26166606 -0.19203813 -0.21611024 -0.07191444 -0.024115788 0.09601679
-0.0007656446 0.25375032 0.10063369 0.19133109 -0.067068115 0.2498286 -0.021891294 0.022665773
-0.090489335 -0.15641895 -0.16784965 0.01509521 -0.17683586 0.25299135 0.09044556 0.074490495
0.15310355 0.13283418 -0.012683004 -0.1944305 -0.25449783 0.19728784 -0.20828374 0.074136175
-0.058123477 0.013286529 -0.23985645 0.008418511 0.254752 0.16981739 -0.22578204 -0.041065007
-0.10237208 0.12984182 -0.16049907 0.09236465 0.09050612 0.00011072063 -0.267873 -0.11361164
0.0979311 -0.08921621 0.19581437 -0.1129839 0.18873921 -0.19365375 -0.15029395 0.07938495
0.106813595 0.09399412 -0.24547404 -0.101881884 0.16805862 0.065512165 -0.100930564 -0.14760362
0.1986945 0.17191656 0.23326428 0.27366626 -0.16003121 -0.20057045 0.22104669 -0.1436277
-0.14077365 -0.010435865 0.15198089 0.07112151 0.23481683 0.12379062 0.13753892 0.08449621
0.1685921 0.10836357 -0.07074274 0.16527894 -0.05115899 -0.21536794 0.18283391 -0.23505668
0.29808825 -0.20834658 -0.28712136 -0.07560985 -0.002030488 0.14724892 0.029581452 -0.16606414
-0.2199093 -0.26480946 0.077467546 -0.17971621 -0.13418803 -0.14055634 -0.23341976 0.013210293
-0.13115919 0.2533804 0.13065746 0.077878766 0.19709988 -0.042125035 0.29587874 -0.08901699
0.08622223 -0.08436604 -0.04338259 -0.21937701 0.14670755 0.18709514 0.05608683 -0.17426471
0.24574122 -0.089340866 0.13297999 -0.13797478 0.2375028 0.24917151 0.026873928 -0.21365704
-0.13877258 0.12310633 -0.15281624 0.14942811 0.14412819 0.15452935 -0.11957846 -0.19120783
-0.041579746 0.22230308 -0.17304268 -0.19937885 0.21373075 -0.235667 0.19060577 -0.052060924
0.118833594 0.2438579 0.27582896 0.053385504 0.2589191 0.14387435 0.14994681 0.13664111
0.15676157 0.2888676 0.02250443 -0.013313495 -0.07332766 0.022240708 -0.021657705 -0.10290206
-0.07568949 -0.14128919 0.22158766 0.08349009 -0.19527592 -0.22144295 -0.026668131 0.28729025
-0.19325207 -0.18620422 -0.113954864 0.2021227 0.14611791 -0.094359964 -0.2509608 0.017811656
0.035827786 0.010757719 0.28604695 -0.16287616 -0.051357184 0.059279177 -0.026598686 0.12318573
-0.24065739 -0.28450224 0.2828267 0.27468482 -0.28114617 0.24615276 -0.081357464 -0.018458173
0.07212464 0.018896947 0.22875018 -0.05085871 0.15389033 -0.1700153 -0.19153786 0.09910124
-0.18130639 0.26849887 0.2561729 0.2787793 -0.020094018 0.19742565 -0.24230325 0.12867826
0.23708908 -0.20725545 -0.051481098 -0.13914368 0.04570643 -0.20209561 -0.04204517 -0.0020300162
00000000: 9337 2a3c c3e8 863e de86 423e 7fea 9bbd
00000010: 2edd 8cbe 1f0c 0e3d 173a 8dbe ee27 98bd
00000020: 2d9e 7f3e d979 e13d 92b2 623e d380 32be
00000030: b547 553e 5046 68be e591 493e b70b 67be
00000040: 79a4 81bd 5e6b 893e e3b0 46be de20 823e
00000050: 955d 57be 3c76 9c3d e1f4 34bd f842 673e
00000060: c63f 833d 11b3 dfbd 3241 903d 955f 5c3e
00000070: 20ef 313e fd79 4bbe 312a 30be fb59 553e
00000080: b9ac 91bd 5597 543e f984 8b3d 8e65 7a3d
00000090: f372 bcbd 9112 18be 2b89 793e b32d 803e
000000a0: d745 26be 47ff dbbd 18f9 853e a5a5 44be
000000b0: 014c 5dbe e147 93bd 798e c5bc 73a4 c43d
000000c0: 8ab5 48ba 90eb 813e 0919 ce3d 4cec 433e
000000d0: 025b 89bd 12d3 7f3e 5f55 b3bc 92ad b93c
000000e0: 7952 b9bd 4a2c 20be c7e0 2bbe e651 773c
000000f0: 7614 35be 1588 813e 863b b93d 798e 983d
00000100: 2dc7 1c3e af05 083e 60cc 4fbc ca18 47be
00000110: 8a4d 82be d305 4a3e 5548 55be b5d4 973d
00000120: e212 6ebd beaf 593c ee9c 75be cbed 093c
00000130: db6e 823e 9ce4 2d3e 6833 67be c833 28bd
00000140: 74a8 d1bd 41f5 043e de59 24be ad29 bd3d
00000150: 465b b93d b032 e838 a626 89be 38ad e8bd
00000160: 1a90 c83d fdb6 b6bd 9083 483e 1a64 e7bd
00000170: da44 413e 2b4d 46be a8e6 19be 9494 a23d
00000180: 16c1 da3d fd7f c03d 8c5d 7bbe 73a7 d0bd
00000190: 8f17 2c3e 3e2b 863d afb4 cebd 6725 17be
000001a0: 9276 4b3e e50a 303e d5dc 6e3e fc1d 8c3e
000001b0: 39df 23be 5762 4dbe 105a 623e 2413 13be
000001c0: f826 10be 31fb 2abc e1a0 1b3e 27a8 913d
000001d0: d373 703e f085 fd3d 01d7 0c3e 590c ad3d
000001e0: 68a3 2c3e b8ed dd3d 92e1 90bd e23e 293e
000001f0: 178c 51bd 6a89 5cbe d038 3b3e b3b2 70be
00000200: 069f 983e ce58 55be 9201 93be 56d9 9abd
00000210: f011 05bb 6cc8 163e cd54 f23c b80c 2abe
00000220: e72f 61be 1b95 87be 4ea7 9e3d 8707 38be
00000230: 9668 09be 00ee 0fbe 9705 6fbe fc6f 583c
00000240: 984e 06be 13bb 813e 12cb 053e e77e 9f3d
00000250: 8dd4 493e 4d8b 2cbd 6b7d 973e 8a4e b6bd
00000260: 4895 b03d 1ac8 acbd f1b1 31bd 5ea4 60be
00000270: 813a 163e de95 3f3e 4ebb 653d 7372 32be
00000280: 96a3 7b3e 58f8 b6bd e82b 083e 4349 0dbe
00000290: ef33 733e d126 7f3e b626 dc3c e9c8 5abe
000002a0: 661a 0ebe 2c1f fc3d dc7b 1cbe af03 193e
000002b0: 5796 133e f13c 1e3e 8de5 f4bd fccb 43be
000002c0: 864f 2abd 6ba3 633e 1a32 31be f829 4cbe
000002d0: 3cdc 5a3e b152 71be 292e 433e d63d 55bd
000002e0: 075f f33d e3b5 793e 7439 8d3e c2aa 5a3d
000002f0: 0b91 843e cc53 133e a88b 193e a6eb 0b3e
00000300: 1b86 203e 74e6 933e 365b b83c d820 5abc
00000310: d02c 96bd 2532 b63c 806b b1bc 51be d2bd
00000320: 1703 9bbd 1dae 10be e0e7 623e dafc aa3d
00000330: 69f6 47be f1c1 62be 2077 dabc b517 933e
00000340: dfe3 45be 52ac 3ebe 2b61 e9bd 41f9 4e3e
00000350: ef9f 153e cc3f c1bd ef7d 80be c0e9 913c
00000360: 28c0 123d 2541 303c bf74 923e 02c9 26be
00000370: e95b 52bd b9ce 723d 7de5 d9bc cd48 fc3d
00000380: e46e 76be 47aa 91be a9ce 903e 7da3 8c3e
00000390: 64f2 8fbe 780f 7c3e be9e a6bd 9835 97bc
000003a0: 15b6 933d c5cd 9a3c 7d3d 6a3e 3951 50bd
000003b0: 6d95 1d3e 7e18 2ebe 8022 44be 97f5 ca3d
000003c0: 62a8 39be af78 893e 1829 833e 29bc 8e3e
000003d0: 369c a4bc f329 4a3e 581e 78be 3cc4 033e
000003e0: 7bc7 723e c63a 54be d8dd 52bd ae7b 0ebe
000003f0: aa36 3b3d 27f2 4ebe 8e37 2cbd 050a 05bb

model.pnode.func.model.0.bias f4 [128]
-0.27194092 -0.093157746 -0.10371183 -0.23202841 -0.120010525 -0.08635507 -0.2268643 0.16723216
-0.11966767 -0.2455835 0.21538824 0.2524075 0.17554969 -0.028581157 -0.15470466 -0.033964712
-0.21539778 -0.23890637 0.2847365 0.2352009 -0.25759712 0.22183038 -0.24029605 -0.13650966
0.2340752 -0.14837366 0.12188242 -0.227928 -0.14577276 -0.08382382 -0.06591174 -0.12802024
-0.18283048 -0.27248064 0.109134786 0.23163906 0.27130353 -0.070282154 -0.27473205 -0.05658826
0.173914 -0.18737026 0.026461199 -0.09886613 0.010034979 -0.092873596 0.23907651 0.30235174
0.2267814 0.009307428 -0.10909016 0.092561096 -0.019801995 0.06066717 -0.07987294 0.18823467
-0.13019451 -0.12024486 -0.092358306 0.22708447 -0.15288997 -0.11288079 0.26173776 0.100707024
-0.26021066 0.086005375 -0.25684163 -0.11708238 0.1712385 0.12956442 -0.073051244 -0.0027313796
-0.046349764 0.19167201 -0.21262173 -0.05291355 0.045191433 0.25421536 -0.23669675 0.16800094
0.16296242 0.16806568 0.19612414 -0.15622616 -0.12329527 -0.19031788 -0.13438852 -0.12741275
0.13439555 -0.0038693962 0.08828781 0.28011003 -0.27842313 -0.1570704 -0.105040036 0.00016801982
0.22431509 -0.13735634 0.1771859 -0.21279319 0.02942427 0.07780218 -0.11653353 0.21563143
0.002906406 0.24054387 0.1985459 -0.037669588 -0.10332941 -0.09000349 -0.13085124 -0.079197384
0.015190791 -0.26192984 -0.2063356 -0.11085872 -0.28916147 -0.1008533 0.20043994 0.020117946
0.29313308 0.13234828 -0.06658873 -0.13188566 0.2767112 0.048328493 0.026376527 -0.12228191
00000000: d73b 8bbe 7dc9 bebd de66 d4bd db98 6dbe
00000010: 14c8 f5bd edda b0bd 1d4f 68be e83e 2b3e
00000020: 5314 f5bd 3e7a 7bbe bc8e 5c3e 8e3b 813e
00000030: 4cc3 333e 0823 eabc e66a 1ebe 951e 0bbd
00000040: 3c91 5cbe dfa3 74be fcc8 913e 81d8 703e
00000050: c5e3 83be 8127 633e 2b10 76be 30c9 0bbe
00000060: 69b1 6f3e 44ef 17be 7d9d f93d f565 69be
00000070: 7445 15be d3ab abbd bcfc 86bd bd17 03be
00000080: ea37 3bbe 9582 8bbe 0f82 df3d ca32 6d3e
00000090: 4ce8 8a3e 17f0 8fbd aea9 8cbe 17c9 67bd
000000a0: 8316 323e fddd 3fbe 28c5 d83c 537a cabd
000000b0: c169 243c 8334 bebd 79d0 743e d9cd 9a3e
000000c0: 6239 683e 2f7e 183c a96a dfbd ac90 bd3d
000000d0: cb37 a2bc 237e 783d 6d94 a3bd 97c0 403e
000000e0: b651 05be f042 f6bd 5a26 bdbd d588 683e
000000f0: 308f 1cbe 0b2e e7bd 7e02 863e 7c3f ce3d
00000100: 553a 85be 9623 b03d bf80 83be e3c8 efbd
00000110: 2559 2f3e 89ac 043e e49b 95bd f200 33bb
00000120: 40d9 3dbd ab45 443e 83b9 59be e1bb 58bd
00000130: a71a 393d 8428 823e a260 72be 7008 2c3e
00000140: 9fdf 263e 6919 2c3e c4d4 483e c0f9 1fbe
00000150: 3b82 fcbd b1e2 42be 259d 09be 7d78 02be
00000160: fd9e 093e b295 7dbb 3dd0 b43d 956a 8f3e
00000170: 7a8d 8ebe 10d7 20be 3b1f d7bd 7a2e 3039
00000180: dbb2 653e 24a7 0cbe 3870 353e 75e6 59be
00000190: 2b0b f13c c056 9f3d 22a9 eebd 7cce 5c3e
000001a0: 6779 3e3b 2251 763e 9e4f 4b3e 6d4b 1abd
000001b0: 5f9e d3bd c053 b8bd defd 05be 3d32 a2bd
000001c0: cce2 783c ab1b 86be a449 53be e609 e3bd
000001d0: f90c 94be 2d8c cebd 2140 4d3e 64ce a43c
000001e0: 8a15 963e 4f86 073e ac5f 88bd 090d 07be
000001f0: 17ad 8d3e 19f4 453d 9613 d83c f06e fabd

model.pnode.func.model.2.weight f4 [128, 128]
-0.041946 0.034889072 0.021565827 0.09937785 0.014071463 0.015021252 -0.038877606 -0.051916644
0.09094287 -0.058475807 -0.07922903 -0.049756173 -0.04511359 -0.029569814 -0.012366784 0.022112159
0.034762852 0.03941779 0.10153591 -0.06615498 0.0007950552 0.07118277 0.02327907 0.05055186
0.09561448 0.097082295 0.06555969 -0.025834441 -0.065385625 0.077916 -0.094387375 -0.0014936618
-0.004341059 0.0623644 0.09659022 -0.017239174 -0.008127918 0.06549639 0.014491725 0.0066837887
0.012082673 -0.011684723 -0.08895823 -0.064599216 0.05844066 -0.06591663 -0.05071061 0.0049672015
0.04265966 -0.034348067 0.098128274 -0.062448494 0.066985466 0.08779625 0.019678205 0.042400185
0.042379074 0.014072094 0.017930612 -0.01892894 -0.02687332 0.008719699 -0.07717906 -0.013491821
0.008856364 0.0014599394 -0.003160649 -0.09606081 -0.054984946 -0.029382698 0.06421162 0.088106304
0.07578541 0.0066942824 0.030413257 0.020277888 0.06610433 0.052134287 -0.0035255156 -0.05225255
0.035731297 -0.06964087 -0.054256402 0.04555498 -0.027546283 0.07167768 -0.04641569 -0.0061655464
-0.059969727 0.08587903 -0.05253959 0.058756366 0.021958133 -0.048441168 -0.089101985 -0.06852803
-0.048569385 -0.08439947 -0.07552079 0.034965593 -0.048116643 -0.014642019 0.097121105 0.057605784
-0.068040155 0.039409097 0.104445755 -0.08629415 -0.01684738 0.010379515 0.017862068 -0.039217323
0.06619742 0.07404814 -0.048822343 0.09477872 -0.0075267525 0.0030294757 0.07777806 -0.037747342
0.019071106 0.04304893 -0.081922345 0.07016242 0.06513709 -0.024601515 -0.011919886 -0.06548152
-0.034662843 0.04385939 0.084756866 -0.04888843 0.024827888 0.022305695 -0.0015660485 0.016426373
0.037403766 0.088331014 0.0686438 -0.0071331267 -0.039794184 0.017220687 -0.027731735 0.089818805
0.0058067297 -0.03760191 0.033274256 0.0120840175 -0.074833274 -0.03588892 0.06308838 0.06444845
-0.06264263 0.0644038 -0.039504286 -0.04350118 0.010023545 -0.07159808 0.074279584 0.051102675
0.060158152 0.006343077 -0.065682456 -0.015644286 -0.016026191 0.03917372 0.0077300365 -0.049063347
0.021670306 0.04112358 0.008267805 0.079552226 -0.044474177 0.050069164 0.0018720122 0.035699334
-0.024328828 -0.011570792 0.073340744 -0.06506191 -0.006520147 0.045494292 -0.039603356 -0.012061138
-0.02153756 0.0765549 0.004165146 -0.06377294 -0.033438496 -0.03359836 -0.04162167 0.048674274
-0.08434784 0.081115484 -0.021223783 -0.07028832 -0.0730066 -0.019451384 0.034932543 -0.06210065
-0.074494876 -0.0813971 0.009131042 -0.06173088 -0.044523597 0.046284914 0.020161742 -0.06524414
-0.05218989 -0.062203266 0.02509851 0.08908903 -0.0034899532 0.015186547 -0.065975 -0.015742118
0.05986752 -0.016355315 -0.05206063 0.08589148 0.07527384 -0.017281314 0.049617615 0.015345275
0.076328985 -0.004365828 -0.094823904 -0.02626661 -0.07524959 0.018897139 0.0083309775 -0.08753815
-0.0026841266 -0.056348518 -0.03155505 -0.05170893 0.02972634 0.024375644 0.05003107 -0.03811304
0.00772119 0.035141796 -0.06957398 0.047505282 0.062291976 -0.026761424 -0.08014788 0.066679776
0.0586214 -0.0416458 0.072123155 -0.010027578 -0.042980928 -0.045821004 -0.023361692 0.019561308
00000000: 92cf 2bbd d8e7 0e3d d1aa b03c 9d86 cb3d
00000010: fe8b 663c b31b 763c 203e 1fbd 8ca6 54bd
00000020: 4140 ba3d 5484 6fbd d442 a2bd 21cd 4bbd
00000030: 07c9 38bd 653c f2bc 0d9e 4abc 8f24 b53c
00000040: 7e63 0e3d 8c74 213d 0ff2 cf3d 437c 87bd
00000050: 406b 503a 46c8 913d c0b3 be3c 780f 4f3d
00000060: 86d1 c33d 15d3 c63d 2944 863d c0a2 d3bc
00000070: e6e8 85bd 6c92 9f3d 2b4e c1bd f9c6 c3ba
00000080: 713f 8ebb d071 7f3d 18d1 c53d 2b39 8dbc
00000090: f52a 05bc f922 863d b36e 6d3c af03 db3b
000000a0: 67f6 453c 4871 3fbc bc2f b6bd 984c 84bd
000000b0: 795f 6f3d 4cff 86bd eeb5 4fbd e8c3 a23b
000000c0: e5bb 2e3d 8fb0 0cbd 7af7 c83d fec9 7fbd
000000d0: ad2f 893d 85ce b33d 3034 a13c d1ab 2d3d
000000e0: ae95 2d3d a48e 663c 38e3 923c dd10 9bbc
000000f0: 7025 dcbc 12dd 0e3c 0e10 9ebd cc0c 5dbc
00000100: 481a 113c 705b bf3a e422 4fbb 88bb c4bd
00000110: e537 61bd fcb3 f0bc 6281 833d 1471 b43d
00000120: 6235 9b3d b65b db3b 3925 f93c d01d a63c
00000130: b561 873d c38a 553d 560c 67bb c506 56bd
00000140: fb5a 123d df9f 8ebd f63b 5ebd dc97 3a3d
00000150: bea8 e1bc bfcb 923d 611e 3ebd 5a08 cabb
00000160: d1a2 75bd 58e1 af3d c133 57bd 84aa 703d
00000170: 8be1 b33c 3f6a 46bd 1a7b b6bd 6c58 8cbd
00000180: b1f0 46bd a1d9 acbd a5aa 9abd 1538 0f3d
00000190: f515 45bd 14e5 6fbc 6ee7 c63d 0bf4 6b3d
000001a0: a358 8bbd 6f6b 213d a8e7 d53d fdba b0bd
000001b0: 8403 8abc d70e 2a3c 7953 923c 58a2 20bd
000001c0: 8392 873d 8da6 973d f0f9 47bd 581b c23d
000001d0: faa2 f6bb 2b8a 463b 1b4a 9f3d f59c 1abd
000001e0: 023b 9c3c 1354 303d e7c6 a7bd 51b1 8f3d
000001f0: 9866 853d 1e89 c9bc a04b 43bc 2d1b 86bd
00000200: a0fa 0dbd e7a5 333d 0295 ad3d 3c3f 48bd
00000210: db63 cb3c 6fba b63c de43 cdba 9a90 863c
00000220: b134 193d e4e6 b43d 1f95 8c3d 01bd e9bb
00000230: 3aff 22bd 6612 8d3c aa2d e3bc ecf2 b73d
00000240: 6146 be3b 7604 1abd 964a 083d 0bfc 453c
00000250: 3042 99bd 4300 13bd 7b34 813d 8dfd 833d
00000260: c74a 80bd 24e6 833d 3fcf 21bd 4b2e 32bd
00000270: cb39 243c 04a2 92bd e51f 983d 0a51 513d
00000280: 6568 763d 96d9 cf3b 8684 86bd 7228 80bc
00000290: 5c49 83bc 9f74 203d 3f4c fd3b a6f6 48bd
000002a0: ed85 b13c 3371 283d b075 073c 47ec a23d
000002b0: 8e2a 36bd 5315 4d3d 4e5e f53a 7739 123d
000002c0: 404d c7bc 6b93 3dbc ac33 963d 2e3f 85bd
000002d0: f5a6 d5bb 3958 3a3d 2137 22bd 149c 45bc
000002e0: 896f b0bc d1c8 9c3d c77b 883b 639b 82bd
000002f0: cef6 08bd 6f9e 09bd 7c7b 2abd ad5e 473d
00000300: 8fbe acbd e01f a63d 80dd adbc 53f3 8fbd
00000310: 7c84 95bd 8258 9fbc 6d15 0f3d 405d 7ebd
00000320: c590 98bd 86b3 a6bd 5e9a 153c 85d9 7cbd
00000330: 605e 36bd 4095 3d3d 3d2a a53c b89e 85bd
00000340: 11c5 55bd dac8 7ebd 649b cd3c 4f74 b63d
00000350: b3b7 64bb ffd0 783c e71d 87bd 9df5 80bc
00000360: a537 753d 95fb 85bc 873d 55bd dfe7 af3d
00000370: 2c29 9a3d 8b91 8dbc d73b 4b3d c06a 7b3c
00000380: 5f52 9c3d 380f 8fbb 0933 c2bd 132d d7bc
00000390: 751c 9abd 2cce 9a3c a77e 083c 3447 b3bd
000003a0: 2ce8 2fbb b4cd 66bd de3f 01bd becc 53bd
000003b0: a784 f33c 6eaf c73c 61ed 4c3d 6b1c 1cbd
000003c0: 0902 fd3b d8f0 0f3d ce7c 8ebd e694 423d
000003d0: df25 7f3d c63a dbbc 9224 a4bd 688f 883d
000003e0: fe1c 703d c994 2abd 4eb5 933d b64a 24bc
000003f0: c50c 30bd ceae 3bbd 0561 bfbc 093f a03c
